raspberry_pi/Models/128_x_128_2D.tflite (tflite, 285168 bytes, 30 tensors)

batch_normalization/FusedBatchNorm_add_param f4 [16]
0	0xbe8a47c7	-0.27007887
1	0xbf2b399c	-0.6688478
2	0xbf33ba96	-0.7020658
3	0xbe52deac	-0.20592755
4	0xbeb24fed	-0.34826604
5	0xbf5ec805	-0.87023956
6	0xbf90c60d	-1.131044
7	0xbea53b9c	-0.3227204
8	0xbea99d55	-0.33127847
9	0xbdd3930e	-0.10330783
10	0xbfe504fc	-1.7892146
11	0xbf21e52d	-0.6324032
12	0xbe80a286	-0.25123996
13	0xbecd9d92	-0.4015928
14	0xbf3767d1	-0.71642786
15	0xbf3a7656	-0.72836816

batch_normalization/FusedBatchNorm_mul_0_param f4 [16]
0	0x3e7d250c	0.24721164
1	0x3ca29aa7	0.019849135
2	0x3cd546cb	0.026034733
3	0x3ebb4eff	0.36583707
4	0x3e234409	0.15943922
5	0x3c94231c	0.018083148
6	0x3e205b2f	0.15659784
7	0x3e977fee	0.2958979
8	0x3e31da65	0.17368467
9	0x3dee300a	0.116302565
10	0x3e93166e	0.2872805
11	0x3e38b45e	0.18037555
12	0x3e94439c	0.28957832
13	0x3e7f1916	0.24911913
14	0x3e2664c3	0.16249375
15	0x3c97a6f5	0.018512229

batch_normalization_1/FusedBatchNorm_add_param f4 [32]
0	0xbe744838	-0.23855674
1	0xbee38cd7	-0.4444339
2	0xbf4ce5aa	-0.8003794
3	0xbefbfb4c	-0.49215162
4	0xbe9a78db	-0.3017033
5	0xbf30f21a	-0.6911942
6	0xbed86244	-0.4226247
7	0xbed52baa	-0.41634876
8	0xbedb32f1	-0.42812303
9	0xbe45036c	-0.19239587
10	0xbf828474	-1.0196671
11	0x3c4aed00	0.012385607
12	0xbe5b12a6	-0.21393833
13	0xbb734900	-0.0037122369
14	0xbe1d45fe	-0.15358731
15	0xbe358dab	-0.17729823
16	0xbee69fec	-0.45043886
17	0xbf7fa605	-0.998627
18	0xbf4a5ea2	-0.7905065
19	0xbf3b549c	-0.7317598
20	0xbe4b5fc1	-0.19860746
21	0xbf22bd20	-0.6356983
22	0x3e4f48a2	0.20242551
23	0xbf15c9a2	-0.5851079
24	0xbe605faa	-0.21911493
25	0x3dddf84c	0.108383745
26	0x3ec83288	0.39101052
27	0xbe3f1eaf	-0.18664049
28	0xbc149e80	-0.0090709925
29	0xbf1514c0	-0.58234787
30	0xbde4dcc8	-0.11174923
31	0xbee84e0c	-0.45372045

batch_normalization_1/FusedBatchNorm_mul_0_param f4 [32]
0	0x3df3ed8d	0.119105436
1	0x3e4577ef	0.19284032
2	0x3ec21d38	0.37912917
3	0x3ed207da	0.41021615
4	0x3ea7e66e	0.3279299
5	0x3e26abac	0.16276425
6	0x3e89ace5	0.2688972
7	0x3e393c34	0.18089372
8	0x3de9a4d4	0.114083916
9	0x3e93a3a4	0.28835785
10	0x3e4e1f8e	0.20129225
11	0x3e8aa869	0.27081612
12	0x3e8b0003	0.27148446
13	0x3ef6993b	0.4816378
14	0x3e3afad5	0.18259747
15	0x3d9da159	0.0769679
16	0x3e19ed9a	0.15032044
17	0x3e3e3d3d	0.18578048
18	0x3e2bd4d9	0.16780414
19	0x3ecb6a49	0.39729527
20	0x3e817d0c	0.25290716
21	0x3ea094d3	0.31363544
22	0x3e266e4e	0.16253015
23	0x3e6042c2	0.21900466
24	0x3de9058f	0.11378013
25	0x3e222aa5	0.1583658
26	0x3ec9b155	0.39393106
27	0x3dfd2a51	0.12361587
28	0x3e527fa3	0.20556502
29	0x3e559fcd	0.2086174
30	0x3e9921f3	0.29908714
31	0x3ea0de9d	0.3141984

batch_normalization_2/FusedBatchNorm_add_param f4 [32]
0	0xbe03a712	-0.12856701
1	0xbea6b750	-0.3256173
2	0xbea6c7d1	-0.32574323
3	0xbe8684e0	-0.2627325
4	0xbe0a69a2	-0.13516858
5	0xbc4209a0	-0.011843115
6	0xbf114a0c	-0.5675361
7	0xbf0d373a	-0.55162394
8	0xbe9ce24c	-0.306414
9	0xbf75d250	-0.96024036
10	0xbf1e4ccc	-0.6183593
11	0xbeec4215	-0.46144167
12	0x3c39cbb0	0.011340067
13	0xbf499766	-0.7874664
14	0xbe3b7ec6	-0.18310079
15	0xbda8b4ac	-0.082375854
16	0xbf087f80	-0.5331955
17	0xbf945a76	-1.1590106
18	0xbf1f2358	-0.62163305
19	0xbf46ff76	-0.7773355
20	0xbe56a317	-0.20960651
21	0xbf1b0301	-0.6055146
22	0xbeda0bd4	-0.4258715
23	0xbed76acd	-0.4207367
24	0xbf198e2c	-0.5998256
25	0xbeaf49f9	-0.34236124
26	0xbd593c50	-0.053036034
27	0xbd38c348	-0.04510811
28	0xbf31af18	-0.69407797
29	0xbf6e48b2	-0.93079674
30	0xbf152463	-0.58258647
31	0xbd622330	-0.05520934

batch_normalization_2/FusedBatchNorm_mul_0_param f4 [32]
0	0x3dcc47ba	0.09974618
1	0x3e6b4b7e	0.22978017
2	0x3e12d66b	0.14339606
3	0x3e8865b3	0.2664009
4	0x3e05bc0b	0.13060014
5	0x3e723a81	0.2365513
6	0x3e294a44	0.16532236
7	0x3e2da7a7	0.16958486
8	0x3e1b5dd6	0.15172514
9	0x3e4d2261	0.20032646
10	0x3e4096f1	0.1880758
11	0x3e1eb542	0.15498832
12	0x3e070ff8	0.13189685
13	0x3e0afc80	0.13572884
14	0x3e9ae663	0.30253896
15	0x3e94692c	0.2898649
16	0x3e8311d0	0.25599527
17	0x3e2350e5	0.15948828
18	0x3e455045	0.19268902
19	0x3e13c83b	0.1443185
20	0x3e1d88dd	0.1538424
21	0x3e1de739	0.15420236
22	0x3e69edf4	0.22844678
23	0x3e3cd90c	0.18442172
24	0x3e7d3d2d	0.24730368
25	0x3e15f949	0.14645876
26	0x3e354e3b	0.17705624
27	0x3e4f3dc1	0.20238401
28	0x3df35b68	0.11882669
29	0x3e72cf16	0.2371181
30	0x3e50364a	0.2033321
31	0x3e0bb93d	0.13644882

batch_normalization_3/FusedBatchNorm_add_param f4 [64]
0	0xbe4eb0ef	-0.20184682
1	0xbe6411b5	-0.2227238
2	0xbdebe598	-0.11518401
3	0xbd2b6c04	-0.04185106
4	0xbd65a6c8	-0.056067258
5	0xbcde6910	-0.027149707
6	0xbf085aa3	-0.532633
7	0xbcc1ae30	-0.02364263
8	0xbc90ae30	-0.017661184
9	0x3e403002	0.18768314
10	0x3ea2543f	0.317049
11	0xbc226700	-0.009912252
12	0x3ea02820	0.31280613
13	0xbf045108	-0.51686144
14	0x3c9b41e8	0.018952325
15	0x3e8af4a2	0.27139765
16	0xbd0794c4	-0.03310086
17	0xbddcc284	-0.107792884
18	0xbe28da44	-0.16489512
19	0xbe8c09b6	-0.2735116
20	0x3e62246c	0.22084206
21	0xbd0b3010	-0.033981383
22	0xbf18dc1f	-0.5971088
23	0xbd9fd544	-0.07804349
24	0xbe5eed3c	-0.21770185
25	0xbe26743d	-0.16255279
26	0xbeb659af	-0.35615298
27	0x3cb6de38	0.022322759
28	0x3e258b8e	0.16166517
29	0x3d49ca60	0.049265265
30	0xbe8390a0	-0.25696278
31	0xbd867e46	-0.065670535
32	0xbe749b92	-0.2388747
33	0x3e3446c6	0.17605123
34	0xbe73f075	-0.23822196
35	0xbd957434	-0.072975546
36	0xbbbfff00	-0.005859256
37	0xbe232eb8	-0.1593579
38	0xbd89be24	-0.067257196
39	0xbdffff64	-0.12499884
40	0xbce92788	-0.028461233
41	0x3e08f3be	0.1337423
42	0xbe7c4438	-0.24635398
43	0xbd9b4980	-0.075823784
44	0xbeb81c37	-0.35959026
45	0xbe21f779	-0.1581706
46	0x3d9247cc	0.071426004
47	0xbbc8f6e0	-0.0061329454
48	0xbe995a12	-0.2995153
49	0xbdbca217	-0.09210604
50	0x3e153b0c	0.14573306
51	0xbcf64728	-0.030063227
52	0xbdc90ea4	-0.098172456
53	0x3ea5e66c	0.3240236
54	0xbd3d9948	-0.04628876
55	0x3e078626	0.13234767
56	0xbdd68e48	-0.10476357
57	0x3dc28f6c	0.09500012
58	0xbc3eed30	-0.01165323
59	0x3dd1ec94	0.10250202
60	0xbe862985	-0.26203552
61	0x3e264570	0.16237426
62	0xbe327a07	-0.17429362
63	0xbe02522a	-0.12726656

batch_normalization_3/FusedBatchNorm_mul_0_param f4 [64]
0	0x3e7d4a8a	0.24735466
1	0x3ed1e81e	0.40997404
2	0x3ea80eec	0.32823884
3	0x3f189309	0.5959936
4	0x3e9912a8	0.29897046
5	0x3df301cc	0.11865577
6	0x3e312178	0.17297924
7	0x3f0e317b	0.5554425
8	0x3e6a3d3a	0.22874919
9	0x3f07cbd4	0.5304539
10	0x3ec6f1e5	0.38856426
11	0x3e8de816	0.2771613
12	0x3f52a45b	0.82282037
13	0x3e3de4db	0.18544333
14	0x3eee9a81	0.46602252
15	0x3edbb254	0.4290949
16	0x3ec57389	0.3856471
17	0x3ec62eb7	0.38707516
18	0x3e2b31d1	0.16718222
19	0x3eb86f74	0.36022532
20	0x3eda3b20	0.42623234
21	0x3e526500	0.20546341
22	0x3de18a8d	0.110127546
23	0x3e56b598	0.2096771
24	0x3e595493	0.21223669
25	0x3e698f74	0.2280863
26	0x3f050273	0.5195686
27	0x3ebaf0ce	0.36511844
28	0x3ea5ac51	0.3235803
29	0x3e9dd468	0.30826116
30	0x3f055330	0.5208006
31	0x3ddcacbb	0.10775133
32	0x3e953a38	0.2914598
33	0x3ef4a462	0.47781664
34	0x3d6524a4	0.055943146
35	0x3de3064a	0.11085184
36	0x3e028b3c	0.12748426
37	0x3dba0ea2	0.09084822
38	0x3e1253ae	0.14289734
39	0x3dc1668c	0.094433874
40	0x3f0b38cd	0.54383546
41	0x3da9dd17	0.08294123
42	0x3e065d3e	0.13121507
43	0x3eaa2aa4	0.33235657
44	0x3ee83c25	0.45358387
45	0x3e5b0b57	0.21391045
46	0x3f46b4a3	0.7761938
47	0x3e27cb0d	0.16386051
48	0x3ea2a113	0.31763515
49	0x3f1cdf16	0.612779
50	0x3f555799	0.8333679
51	0x3ee7419e	0.4516725
52	0x3e32d93f	0.17465685
53	0x3ec3c16a	0.382335
54	0x3eeb6ec3	0.45982942
55	0x3eb73d39	0.35788897
56	0x3e5f87ec	0.21829194
57	0x3e64ae60	0.22332144
58	0x3ec35428	0.38150144
59	0x3ea2e1de	0.31812948
60	0x3dbc0481	0.091805466
61	0x3f00fb64	0.5038359
62	0x3e4b46db	0.19851248
63	0x3e1b94a4	0.1519342

batch_normalization_4/FusedBatchNorm_add_param f4 [64]
0	0xbfa884b1	-1.3165494
1	0xbf749bbc	-0.9555013
2	0xbf8d6933	-1.1047729
3	0xbf377885	-0.71668273
4	0xbf31e741	-0.6949349
5	0xbf22f634	-0.63656926
6	0xbf63257c	-0.8872907
7	0xbf8ab2e2	-1.0835841
8	0xbf445f55	-0.76707965
9	0xbf804a94	-1.002276
10	0xbf19219d	-0.59816915
11	0xbf86d8e4	-1.053494
12	0xbf6a4a68	-0.91519785
13	0xbf737eb2	-0.95115197
14	0xbf48537c	-0.7825239
15	0xbfad9a31	-1.356268
16	0xbf97acb6	-1.1849582
17	0xbf79304c	-0.9733932
18	0xbf79581e	-0.9740008
19	0xbf680b88	-0.90642595
20	0xbf0955a3	-0.53646296
21	0xbf075e3c	-0.52878165
22	0xbec05c09	-0.37570217
23	0xbf76d7ab	-0.96422833
24	0xbeebc672	-0.4604984
25	0xbf296a98	-0.66178274
26	0xbf5b099c	-0.8556154
27	0xbed039f7	-0.40669224
28	0xbf5faa8d	-0.87369615
29	0xbf4d0b88	-0.8009572
30	0xbf5b0240	-0.8555031
31	0xbf805058	-1.0024519
32	0xbf1f8178	-0.6230693
33	0xbf4b001d	-0.7929705
34	0xbf1f52ba	-0.62235606
35	0xbf3a3466	-0.72736204
36	0xbf4bfcd0	-0.79682636
37	0xbf438315	-0.7637189
38	0xbf52b6d4	-0.82310224
39	0xbf24c3ba	-0.64361155
40	0xbf5e677f	-0.8687667
41	0xbf8a229f	-1.0791816
42	0xbf6ed768	-0.93297434
43	0xbf07f6c3	-0.53110904
44	0xbf3666b5	-0.7125047
45	0xbf6e571c	-0.9310167
46	0xbf6e76fd	-0.9315031
47	0xbf30c17c	-0.69045234
48	0xbf7198fa	-0.9437405
49	0xbf0a8156	-0.541036
50	0xbf5c84cb	-0.86140126
51	0xbf81858f	-1.0118884
52	0xbec8ea18	-0.392411
53	0xbf24a20c	-0.64309764
54	0xbf1d1501	-0.61360174
55	0xbf542f08	-0.82884264
56	0xbee6d25d	-0.4508237
57	0xbf6e108e	-0.9299401
58	0xbf09361d	-0.53598195
59	0xbf367fdd	-0.71288854
60	0xbf5733f7	-0.8406367
61	0xbf6dac5c	-0.92841125
62	0xbf69ca3c	-0.9132421
63	0xbf0a149a	-0.53937685

batch_normalization_4/FusedBatchNorm_mul_0_param f4 [64]
0	0x3f1e5dc2	0.61861813
1	0x3f1617a2	0.5862981
2	0x3eb0523c	0.3443774
3	0x3f999934	1.1999879
4	0x3f07da8a	0.5306784
5	0x3f4a2fe7	0.78979343
6	0x3f0f2ead	0.55930597
7	0x3ebb0184	0.36524594
8	0x3f0e3675	0.55551845
9	0x3f1f0416	0.6211561
10	0x3ec78d6f	0.38975093
11	0x3f3284a8	0.6973367
12	0x3e8d1802	0.2755738
13	0x3f373b76	0.71575105
14	0x3f1a2805	0.60217315
15	0x3ea77046	0.32702845
16	0x3f55e19a	0.83547366
17	0x3ec6ed04	0.38852704
18	0x3ef6ab76	0.4817769
19	0x3ecc9da6	0.39964026
20	0x3f2ec3d0	0.68267536
21	0x3eee27ee	0.4651484
22	0x3efe68ad	0.49689236
23	0x3f2937c1	0.661007
24	0x3ecb3f83	0.39696893
25	0x3e823d91	0.25437596
26	0x3f44d8df	0.7689342
27	0x3ea71049	0.32629612
28	0x3e910eea	0.2833169
29	0x3eb2c669	0.34917
30	0x3f124bac	0.57146716
31	0x3f1a9d33	0.60396117
32	0x3f356ac3	0.7086603
33	0x3ee9807c	0.45605838
34	0x3e98ccd7	0.2984378
35	0x3f2957c2	0.6614953
36	0x3f52fd22	0.824175
37	0x3fb4738b	1.4097761
38	0x3f10faa0	0.56632423
39	0x3f0bd72b	0.54625195
40	0x3ec2fd7e	0.38084024
41	0x3eff6060	0.49878216
42	0x3f7c03e5	0.9844344
43	0x3ee38c0d	0.44442788
44	0x3f06769a	0.5252472
45	0x3e44f55f	0.19234227
46	0x3f160237	0.5859713
47	0x3ef3fa93	0.4765211
48	0x3e74beda	0.23900929
49	0x3ea5ab44	0.32357228
50	0x3f736cb1	0.95087725
51	0x3ee1fae6	0.44136733
52	0x3ece4d02	0.40293127
53	0x3f31a414	0.6939099
54	0x3f4bc6aa	0.7960001
55	0x3e6e6670	0.23281264
56	0x3f81c912	1.0139487
57	0x3efc7e44	0.49315083
58	0x3f085729	0.53257996
59	0x3f108749	0.5645643
60	0x3f5df435	0.86700755
61	0x3f14e5bd	0.5816305
62	0x3f447b58	0.7675071
63	0x3f101722	0.562853

batch_normalization_5/batchnorm/mul f4 [128]
0	0x3cf8f2e9	0.030389266
1	0x3cf6ad97	0.030112071
2	0x3d4c329a	0.049852945
3	0x3d0bf933	0.0341732
4	0x3cf52116	0.029923003
5	0x3c816af8	0.015798077
6	0x3d093291	0.03349549
7	0x3d0b4dc1	0.0340097
8	0x3cee53e1	0.029092731
9	0x3d0b25ec	0.033971712
10	0x3d10a350	0.035311997
11	0x3cecadaf	0.028891413
12	0x3cadc054	0.021209873
13	0x3d0a16d8	0.03371319
14	0x3d07e894	0.03318079
15	0x3cd8503d	0.026405448
16	0x3d3800de	0.044922702
17	0x3cc33511	0.023829015
18	0x3d001b32	0.031275935
19	0x3d1a1904	0.037621513
20	0x3d4483b9	0.047977183
21	0x3ce06ba6	0.02739508
22	0x3d0760e8	0.0330514
23	0x3d38db26	0.04513087
24	0x3d66aa59	0.0563148
25	0x3ce512c8	0.027963057
26	0x3d0acb21	0.033885125
27	0x3d5671e7	0.05235472
28	0x3d3339c2	0.043756254
29	0x3d0d487a	0.034492947
30	0x3ce1ed0a	0.02757885
31	0x3cc1b568	0.023646072
32	0x3cd2c3d7	0.02572815
33	0x3d274cd0	0.04084474
34	0x3d952968	0.07283288
35	0x3cdfce98	0.027320191
36	0x3d0e10a9	0.034683857
37	0x3d84eb2e	0.064901695
38	0x3d275fa6	0.0408627
39	0x3d2a64ef	0.041600164
40	0x3d10acab	0.03532092
41	0x3cad30f4	0.021141507
42	0x3d38f6fd	0.04515742
43	0x3d52ed77	0.051495995
44	0x3ced5078	0.028969035
45	0x3d0a7516	0.033803068
46	0x3d4cbe0a	0.049985923
47	0x3d2e18f5	0.04250427
48	0x3e314bd6	0.17314085
49	0x3cba3eda	0.022735048
50	0x3d083dac	0.03326194
51	0x3cfe776f	0.03106281
52	0x3d641c3a	0.05569098
53	0x3d4c3730	0.04985732
54	0x3d304538	0.043034762
55	0x3db26f25	0.087126054
56	0x3d1823e8	0.037143618
57	0x3d522e96	0.05131396
58	0x3d27381e	0.040825002
59	0x3e3469e0	0.17618513
60	0x3cb4bf49	0.022063868
61	0x3d19b16b	0.037522715
62	0x3cb0e57f	0.021593807
63	0x3d24327a	0.0400872
64	0x3d03d524	0.03218569
65	0x3d3eed41	0.04661298
66	0x3d0e9ef4	0.03481956
67	0x3cc3b654	0.023890652
68	0x3d468bd7	0.048473205
69	0x3d2615d3	0.040548157
70	0x3d451369	0.048114214
71	0x3d196f8b	0.03745989
72	0x3d201b4e	0.03908854
73	0x3f5e4ac7	0.8683285
74	0x3d2c0e4d	0.042005826
75	0x3d05fdb8	0.03271267
76	0x3d0ccb3d	0.03437351
77	0x3cc87d9a	0.024473954
78	0x3d793f90	0.060851634
79	0x3ca089d1	0.019596966
80	0x3d426117	0.047455873
81	0x3cb12745	0.02162517
82	0x3d62a12f	0.055329498
83	0x3d3ea2a4	0.046541825
84	0x3cfed030	0.03110513
85	0x3cd11740	0.025523782
86	0x3d9bf788	0.07615572
87	0x3cd9d859	0.02659242
88	0x3d3d7e13	0.046262812
89	0x40c68bf3	6.2045836
90	0x3d0464dd	0.032322753
91	0x3d0e299b	0.034707647
92	0x3d1686ba	0.03674958
93	0x3d090a9c	0.033457384
94	0x3cc60b7b	0.024175396
95	0x3ce76d13	0.028250253
96	0x3cfda2c3	0.0309614
97	0x3cd44a76	0.025914412
98	0x3d56c802	0.052436836
99	0x3dc3364b	0.0953184
100	0x3d22c584	0.039739147
101	0x3d04ab9e	0.03239023
102	0x3d0e15b1	0.034688655
103	0x3c7aa77d	0.015298721
104	0x3d27818a	0.040895022
105	0x3ca906dc	0.020633154
106	0x3cdfe5a2	0.027331177
107	0x3d0127fa	0.031532265
108	0x3cb0ac71	0.021566601
109	0x3d18870b	0.037238162
110	0x3d5caa7e	0.05387353
111	0x3f6d3fd2	0.9267551
112	0x3d204229	0.039125595
113	0x3cf3aa4a	0.029744286
114	0x3d0657a7	0.032798436
115	0x3cf8d745	0.030376086
116	0x3cff4c19	0.031164216
117	0x3d3d4c1e	0.04621517
118	0x3d199bf8	0.03750226
119	0x3d51b01a	0.051193334
120	0x3d1bc51a	0.038029768
121	0x3ccd7f9b	0.025085261
122	0x3d83cc51	0.06435455
123	0x3cabe4fd	0.020983214
124	0x3cc5b869	0.024135785
125	0x3ce7ace3	0.028280681
126	0x3ce15b86	0.027509462
127	0x3d08ec5c	0.033428535

batch_normalization_5/batchnorm/sub f4 [128]
0	0xbf2a607c	-0.66553473
1	0xbe954bdf	-0.29159448
2	0xbe76ebbf	-0.24113367
3	0xbf8f77b0	-1.1208401
4	0xbf4709dc	-0.7774942
5	0xbee004da	-0.437537
6	0xbf62f8ed	-0.8866108
7	0xbf572876	-0.84046113
8	0xbf83a00b	-1.0283216
9	0xbf1eed8a	-0.62081206
10	0xbd0e4e4c	-0.03474264
11	0xbf57bebf	-0.8427543
12	0xbfae93da	-1.3638871
13	0xbe9825bb	-0.29716286
14	0xbf89fe6b	-1.0780767
15	0xbf66c81c	-0.9014909
16	0xbf099620	-0.537447
17	0xbf756078	-0.95850325
18	0xbf00fc9c	-0.5038545
19	0xbf532562	-0.82478917
20	0xbd210950	-0.03931552
21	0xbf8a8ab1	-1.0823575
22	0xbf16042d	-0.5860012
23	0xbe32601a	-0.17419472
24	0xbd6a7280	-0.057238102
25	0xbf567cbb	-0.83784074
26	0xbf0b7144	-0.54469705
27	0x3ced5818	0.02897267
28	0xbf5ac9c0	-0.85464096
29	0xbf4262aa	-0.759318
30	0xbf9471bf	-1.1597213
31	0xbf8177c8	-1.0114679
32	0xbf5ea408	-0.8696904
33	0xbf1d0054	-0.61328626
34	0xbf4a17d4	-0.7894261
35	0xbf8107b8	-1.008048
36	0xbeadab3e	-0.3391971
37	0xbd7c6198	-0.06161651
38	0xbe7978d5	-0.243625
39	0xbebf98c7	-0.37421247
40	0xbe9795ca	-0.29606467
41	0xbe222eac	-0.15838116
42	0xbf906420	-1.1280556
43	0x3d7eb2b8	0.06218216
44	0xbfd62e0c	-1.6732802
45	0xbf00fca9	-0.5038553
46	0xbe83303e	-0.25622743
47	0xbe12a8c2	-0.14322188
48	0xbe418738	-0.18899238
49	0xbf031905	-0.5121005
50	0xbedab7a8	-0.42718244
51	0xbede2587	-0.43388006
52	0xbf40457c	-0.75106025
53	0xbe70500b	-0.23468034
54	0xbdf97d0a	-0.121820524
55	0xbf353b12	-0.7079326
56	0xbe81bdf8	-0.25340247
57	0xbf48c5c2	-0.78426754
58	0xbec460c7	-0.38355085
59	0xbed4f8f6	-0.41596192
60	0xbfb525c0	-1.4152145
61	0xbf9b0f48	-1.2114038
62	0xbe2a38bc	-0.16623205
63	0xbf86fe02	-1.0546267
64	0xbf8dd595	-1.1080805
65	0xbf9199e9	-1.1375095
66	0xbf9e2f30	-1.235815
67	0xbf776b11	-0.96647745
68	0xbdb0826c	-0.08618626
69	0xbfb266c2	-1.3937609
70	0xbf5ebd2c	-0.87007403
71	0xbe19be1a	-0.15013924
72	0xbed3eff9	-0.41394022
73	0xbf37dd55	-0.718221
74	0xbdd4a3e4	-0.10382822
75	0xbf30229e	-0.6880282
76	0xbe4fc632	-0.2029045
77	0xbf97b527	-1.1852158
78	0xbdc707f8	-0.09718317
79	0xbeda9092	-0.42688423
80	0xbf336984	-0.7008288
81	0xbf8b5093	-1.0883964
82	0xbe91081a	-0.28326494
83	0x3dad6bc4	0.0846782
84	0xbe91af05	-0.28453842
85	0xbf78b92e	-0.9715756
86	0xbf3b21f1	-0.73098665
87	0xbf021010	-0.5080576
88	0xbe536834	-0.20645219
89	0x3ec78111	0.38965657
90	0xbfb7c308	-1.4356394
91	0xbf47604f	-0.7788133
92	0xbf29ae6a	-0.6628176
93	0xbf618b54	-0.8810322
94	0xbf7b7555	-0.9822591
95	0xbf0860ef	-0.5327291
96	0xbf72c9ec	-0.9483936
97	0xbf8f89c9	-1.1213924
98	0xbeb539bd	-0.35395613
99	0xbf48e8ea	-0.784804
100	0xbdacaa80	-0.08430958
101	0xbdc00090	-0.09375107
102	0xbec4b9de	-0.38423055
103	0xbf6d07fc	-0.9259031
104	0x3d471bcc	0.048610494
105	0xbf716127	-0.9428887
106	0xbf928b60	-1.1448784
107	0xbf5fd175	-0.8742898
108	0xbf9232dd	-1.1421772
109	0xbee52954	-0.44758093
110	0xbea69d79	-0.32542017
111	0x3ec620c9	0.38696888
112	0xbe97e4e8	-0.2966683
113	0xbf42a241	-0.7602883
114	0xbf127ce5	-0.57221824
115	0xbeb65d84	-0.35618222
116	0xbea561f4	-0.32301295
117	0xbf8d8756	-1.1056926
118	0xbe134da8	-0.14385092
119	0xbc471580	-0.012151122
120	0xbf5a2401	-0.8521119
121	0xbf20ce9d	-0.62815267
122	0x3bfbf280	0.0076888204
123	0xbf5ca7f2	-0.86193764
124	0xbf4e95f8	-0.80697584
125	0xbf6aadc4	-0.91671395
126	0xbf155daf	-0.58346075
127	0xbf569253	-0.83817023

batch_normalization_6/batchnorm/mul f4 [128]
0	0x3e4bf14c	0.19916266
1	0x3f00816a	0.5019747
2	0x3dcb313e	0.099215016
3	0x3ea90c30	0.3301711
4	0x3e6f80c7	0.23388968
5	0x3d8fc5e6	0.07020168
6	0x3e24f697	0.16109692
7	0x3eb43d50	0.35203028
8	0x3eb0a033	0.34497222
9	0x3d472119	0.04861555
10	0x3e3e7d42	0.1860247
11	0x3e3e0ba3	0.18559127
12	0x3da81c1b	0.08208486
13	0x3d67f88a	0.05663351
14	0x3e3e8160	0.1860404
15	0x3d39bf1e	0.04534828
16	0x3d590a5e	0.052988403
17	0x3d8e989e	0.06962703
18	0x3e687e8b	0.22704522
19	0x3ed83715	0.42229524
20	0x3da611fe	0.081089005
21	0x3d94a8d4	0.07258764
22	0x3d809513	0.06278434
23	0x3da824da	0.08210154
24	0x3ea8ea8b	0.32991442
25	0x3e650cfb	0.22368233
26	0x3e3e449b	0.18580858
27	0x3d6d2815	0.057899553
28	0x3f0547e8	0.52062845
29	0x3e2d1b24	0.16904885
30	0x3f09ff21	0.5390492
31	0x3d8392c8	0.06424481
32	0x3da31698	0.07963294
33	0x3ea402be	0.32033342
34	0x3e66988c	0.2251913
35	0x3e627447	0.22114669
36	0x3d905853	0.070480965
37	0x3d92f8e1	0.07176376
38	0x3e3a83ae	0.18214294
39	0x3d6d799b	0.0579773
40	0x3d8a648d	0.0675746
41	0x3e1c9cc8	0.15294182
42	0x3e4bcac1	0.19901563
43	0x3d742867	0.059608843
44	0x3e8a3d6d	0.2699999
45	0x3e56d5c2	0.2097998
46	0x3d76ae33	0.060224723
47	0x3d44540c	0.047931716
48	0x3dc808ce	0.09767304
49	0x3d886fec	0.066619724
50	0x3e0b54ff	0.13606642
51	0x3e71fb9d	0.23631139
52	0x3e4ad798	0.19808805
53	0x3d3a2682	0.04544688
54	0x3d5dc8e9	0.05414668
55	0x3e583dc8	0.21117318
56	0x3dc01168	0.0937832
57	0x3e4cd236	0.20002064
58	0x3e87f4a5	0.26553836
59	0x3e272ab1	0.16324879
60	0x3d558a60	0.052133918
61	0x3e576527	0.2103468
62	0x3e598ec7	0.21245871
63	0x3d9dc945	0.07704405
64	0x3d6ad560	0.057332397
65	0x3e0ffe71	0.14061905
66	0x3dafc8b8	0.08583206
67	0x3e2dab95	0.16959985
68	0x3c665563	0.014058444
69	0x3d826439	0.06366772
70	0x3dc87a17	0.09788912
71	0x3d80fa2c	0.062977165
72	0x3d8b4813	0.068008564
73	0x3d45f746	0.04833152
74	0x3e3bea7f	0.18351172
75	0x3e4b8a3a	0.19876948
76	0x3e2af93e	0.16696641
77	0x3e2a86f1	0.16653039
78	0x3dca8d29	0.098902054
79	0x3e96d468	0.29458928
80	0x3d6c1fd6	0.05764755
81	0x3e40783a	0.18795863
82	0x3d9f953c	0.07792136
83	0x3e2a662c	0.16640538
84	0x3daf1869	0.08549578
85	0x3e73e6a7	0.23818456
86	0x3d6ebf0c	0.058287665
87	0x3d84461a	0.06458683
88	0x3db03a8f	0.08604919
89	0x3eb02996	0.34406728
90	0x3d7aa6d6	0.061194263
91	0x3dadee18	0.084926784
92	0x3d90131f	0.07034897
93	0x3e3c438d	0.18385144
94	0x3d95be3f	0.07311677
95	0x3e55744d	0.20845146
96	0x3e58fa8f	0.2118933
97	0x3e973373	0.2953144
98	0x3e2c13f4	0.16804487
99	0x3e4e23a8	0.2013079
100	0x3e92e2f0	0.28688765
101	0x3e7604ae	0.24025223
102	0x3e827729	0.25481537
103	0x3e189fa5	0.1490465
104	0x3e9d23e1	0.30691436
105	0x3d80a761	0.06281925
106	0x3eabbbe3	0.33541784
107	0x3e6693c2	0.22517303
108	0x3e2464f8	0.16054142
109	0x3d7fbaa3	0.06243385
110	0x3e8a6f4e	0.27038044
111	0x3e87ce13	0.2652441
112	0x3eafb312	0.34316307
113	0x3da031d2	0.078220025
114	0x3daca3f7	0.08429711
115	0x3d5c2ba8	0.05375257
116	0x3e33e4fa	0.17567816
117	0x3d81d5ad	0.063395835
118	0x3e83088d	0.2559246
119	0x3db0bd71	0.08629883
120	0x3e295830	0.16537547
121	0x3e612f08	0.21990597
122	0x3d71155b	0.058858257
123	0x3d943695	0.07236973
124	0x3d7a5d69	0.06112424
125	0x3d83b310	0.06430638
126	0x3e49fa44	0.19724375
127	0x3ede2c0a	0.43392974

batch_normalization_6/batchnorm/sub f4 [128]
0	0xbd2fb8b0	-0.04290074
1	0x3bfb7800	0.007674217
2	0xbf600be2	-0.8751813
3	0xbc99cb20	-0.018773615
4	0xbe57ec22	-0.21086171
5	0xbf0d49fe	-0.5519103
6	0xbdf940a8	-0.12170535
7	0xbc3f8a80	-0.011690736
8	0x3cb80740	0.022464395
9	0xbf08bb72	-0.5341102
10	0xbec38ddd	-0.3819417
11	0xbe6a3066	-0.22870025
12	0xbf12fe38	-0.5741916
13	0xbf1620b7	-0.5864367
14	0xbe059324	-0.13044411
15	0xbeec0042	-0.46093947
16	0xbef39af4	-0.47579157
17	0xbf50acf1	-0.8151389
18	0xbe736cec	-0.23772019
19	0x3d3b3290	0.045702517
20	0xbf25af64	-0.6472075
21	0xbf2a34a6	-0.66486585
22	0xbf0959d6	-0.53652704
23	0xbf37b27a	-0.7175671
24	0xbd2d3d18	-0.04229459
25	0xbd24ded0	-0.040251553
26	0xbcbe1400	-0.023202896
27	0xbf06d9c1	-0.52676016
28	0xbc26e000	-0.010185242
29	0xbe8cede4	-0.27525246
30	0x3d8323c8	0.06403309
31	0xbf0754f9	-0.52864033
32	0xbf1ee306	-0.6206516
33	0xbe013b6c	-0.12620324
34	0xbde64588	-0.11243731
35	0xbeaf87e6	-0.3428337
36	0xbf36df4e	-0.71434486
37	0xbf2195a6	-0.6311897
38	0xbe3397bc	-0.17538351
39	0xbf03ce41	-0.51486593
40	0xbef1f6af	-0.47258517
41	0xbdfa3404	-0.122169524
42	0xbe255d40	-0.16148853
43	0xbf0f7f1b	-0.5605332
44	0xbc4754c0	-0.012166202
45	0xbe38b85c	-0.18039078
46	0xbf3f938c	-0.74834514
47	0xbf063732	-0.5242797
48	0xbf3437d0	-0.70397663
49	0xbf1a2b91	-0.6022273
50	0xbe152ca8	-0.14567816
51	0xbd8a0890	-0.067399144
52	0xbd5191b0	-0.05116433
53	0xbee541b5	-0.44776693
54	0xbeba32d8	-0.36366916
55	0xbeb16499	-0.34647062
56	0xbf4db178	-0.8034892
57	0xbed63223	-0.41835126
58	0xbe887896	-0.266545
59	0xbebac502	-0.3647843
60	0xbedd4461	-0.4321623
61	0xbddd0b18	-0.107931316
62	0xbe2f5c52	-0.17125061
63	0xbf18fd80	-0.5976181
64	0xbf0e7624	-0.5564902
65	0xbe31c5ab	-0.1736056
66	0xbf3a5930	-0.7279234
67	0xbdadd814	-0.08488479
68	0xbe13ab20	-0.14420748
69	0xbf0469f7	-0.5172419
70	0xbf68642c	-0.9077785
71	0xbef1a3e0	-0.4719534
72	0xbf1ad6c2	-0.60483944
73	0xbef56660	-0.47929668
74	0xbe541f7c	-0.20715135
75	0xbe39590e	-0.18100378
76	0x3c3e4c00	0.0116147995
77	0xbdc02178	-0.09381384
78	0xbf2599ce	-0.6468781
79	0xbe3eaf18	-0.1862148
80	0xbf2b3dde	-0.66891277
81	0xbec8b9bd	-0.39204207
82	0xbf1fcd26	-0.62422407
83	0xbe541bf4	-0.20713788
84	0xbf4ec168	-0.80763865
85	0xbd97ed38	-0.07418293
86	0xbf189ce3	-0.5961439
87	0xbf3849d3	-0.71987647
88	0xbf65def1	-0.89793307
89	0x3d2fdfa0	0.042937875
90	0xbf1cfa1e	-0.6131915
91	0xbf3ed094	-0.74537015
92	0xbf318b07	-0.69352764
93	0xbe48cca0	-0.19609308
94	0xbf3b2f93	-0.7311947
95	0xbc2c7300	-0.010525465
96	0xbe3321fc	-0.17493433
97	0x3b81db00	0.0039628744
98	0xbe6e6d88	-0.2328397
99	0xbe2b7fff	-0.16748045
100	0xbd768170	-0.060182035
101	0xbe4f0c0c	-0.2021944
102	0xbee20217	-0.4414222
103	0xbe33c808	-0.17556775
104	0xbd9f8ba8	-0.07790309
105	0xbf079263	-0.52957743
106	0x3a839000	0.0010037422
107	0xbdde3ed8	-0.1085183
108	0xbe885e63	-0.2663451
109	0xbedcc8ec	-0.4312204
110	0xbe772df0	-0.24138618
111	0x3ccca140	0.024979234
112	0x3bc79500	0.00609076
113	0xbf2282dc	-0.63480926
114	0xbf29bb3c	-0.6630132
115	0xbf0a2d12	-0.5397502
116	0xbe5f44fe	-0.21803662
117	0xbf1c0980	-0.60951996
118	0xbd829b80	-0.063773155
119	0xbf674b44	-0.9034922
120	0xbdc0a9f8	-0.09407419
121	0xbe93c3b6	-0.28860253
122	0xbf0fac38	-0.5612216
123	0xbf435a24	-0.7630942
124	0xbf1d35cc	-0.6141021
125	0xbf190af4	-0.5978234
126	0xbe6581f0	-0.22412848
127	0xbbbd1e00	-0.0057713985

conv2d/Conv2D_bias f4 [16]
0	0xbfb5a4f7	-1.4190968
1	0xbc029f84	-0.007972602
2	0x3e41e465	0.18934782
3	0xbfbed019	-1.4907256
4	0xbe40a2c3	-0.18812089
5	0xbe565f16	-0.2093471
6	0xbe66cd0a	-0.22539154
7	0xbf05b753	-0.52232856
8	0x3e51ea49	0.20499529
9	0xbdc31020	-0.0952456
10	0xbf86174e	-1.0475862
11	0xbd9fa9d0	-0.07796061
12	0xbedf4a1a	-0.43611223
13	0x3dc85ae9	0.09782965
14	0x3d2fdd55	0.042935688
15	0xbdd7c5de	-0.10535787

conv2d/kernel f4 [1, 4, 4, 16]
0	0x3e927650	0.2860589
1	0xbf12ad80	-0.5729599
2	0xbf3d10a0	-0.7385349
3	0x3e35d28b	0.17756097
4	0x3e58b61f	0.21163224
5	0xbec8fc9a	-0.3925522
6	0x3e394f95	0.18096764
7	0xbe82b634	-0.25529635
8	0xbed5cfca	-0.41760093
9	0x3f294e58	0.6613517
10	0x3ebbcf36	0.36681527
11	0xbe62b78a	-0.22140327
12	0xbe00a5ec	-0.12563294
13	0x3ec91bf1	0.3927913
14	0xbee82174	-0.45338023
15	0xbe966adc	-0.29378402
16	0xbd56c9b2	-0.052438445
17	0xbeab9ee3	-0.33519658
18	0xbef9811f	-0.48731324
19	0x3be4dec9	0.006984566
20	0x3e43df5a	0.1912817
21	0xbd86d6b4	-0.0658392
22	0x3dfd8a4e	0.12379895
23	0xbe34d9b1	-0.17661168
24	0x3d564fea	0.052322306
25	0x3e832731	0.25615838
26	0x3e22d87b	0.15902893
27	0xbe6f0d24	-0.23344857
28	0x3ea5f0fa	0.32410413
29	0x3e52bd50	0.2058003
30	0xbe42b449	-0.19014086
31	0xbe9187b9	-0.2842386
32	0x3dd81b97	0.10552137
33	0xbe87c426	-0.26516837
34	0xbea82db7	-0.32847378
35	0x3c296f83	0.010341528
36	0xbdece7fb	-0.11567684
37	0xbb88ba37	-0.004172589
38	0x3eb04ba4	0.3443271
39	0xbe416b09	-0.18888487
40	0xbd440156	-0.047852837
41	0x3d1c0eee	0.038100176
42	0x3eb65e83	0.35618982
43	0xbe56a3e6	-0.2096096
44	0x3e987b5c	0.29781616
45	0xbdc241d5	-0.09485213
46	0x3d7367ee	0.059425287
47	0xbe49af35	-0.19695742
48	0x3df31572	0.11869325
49	0xbec5174d	-0.3849434
50	0xbe98d250	-0.29847956
51	0x3e0a1e02	0.1348801
52	0xbe7266b6	-0.23671994
53	0xbec2d1aa	-0.38050586
54	0x3ea32d4e	0.31870502
55	0xbecfc43d	-0.40579405
56	0x3e7a5d34	0.24449617
57	0x3d4d60db	0.050141197
58	0x3ebaa719	0.3645561
59	0xbea9565f	-0.33073708
60	0xbc79b6a6	-0.015241301
61	0xbe9adc1e	-0.3024606
62	0x3e919e92	0.28441292
63	0xbec8ba67	-0.39204714
64	0x3d98e253	0.07465043
65	0xbdf34028	-0.11877471
66	0xbd1485e7	-0.03626051
67	0x3dd4875b	0.103773795
68	0x3eaa991d	0.3331994
69	0xbe0bb25e	-0.1364226
70	0x3dd122a0	0.10211682
71	0x3e882e08	0.2659762
72	0xbe7c7f03	-0.24657826
73	0x3e7cd604	0.24691015
74	0x3dee4680	0.116345406
75	0xbe3b03d2	-0.18263176
76	0xbeb66551	-0.35624173
77	0x3e864cb6	0.262304
78	0xbe6990c3	-0.22809128
79	0xbebe898c	-0.37214315
80	0x3dd6b287	0.1048327
81	0x3d8066df	0.06269621
82	0x3dbef39f	0.09323811
83	0x3ba268b6	0.00495633
84	0xbc0941ae	-0.008377476
85	0xbc497f02	-0.012298347
86	0x3cd7fac4	0.026364692
87	0x3db6ee88	0.08932215
88	0x3d636b82	0.05552245
89	0x3e382adc	0.179851
90	0x3e3d823f	0.18506716
91	0xbd17440c	-0.03693013
92	0x3ec75ee2	0.38939577
93	0x3e8ee1ad	0.27906552
94	0x3d48baa7	0.04900613
95	0xbd976e51	-0.07394088
96	0x3d3204f9	0.043461774
97	0xbe800c04	-0.25009167
98	0xbe31f83d	-0.17379852
99	0x3d38c05d	0.045105327
100	0xbd8a552f	-0.06754529
101	0xbec97850	-0.39349604
102	0x3de36bc1	0.11104537
103	0x3e4756be	0.19466683
104	0x3aa9a513	0.0012942873
105	0x3dd52564	0.10407522
106	0xbac12c81	-0.0014737995
107	0xbc6ccdef	-0.014453395
108	0x3e34cb20	0.17655611
109	0xbe373f8e	-0.17895338
110	0xbe02b797	-0.12765346
111	0xbe0ba5da	-0.13637486
112	0xbcd494ce	-0.025949862
113	0xbe6d7ca7	-0.23192082
114	0xbec2ccc1	-0.3804684
115	0x3b984512	0.0046469057
116	0xbeb404ef	-0.35160014
117	0xbf0447c5	-0.5167201
118	0x3d8509dc	0.06496021
119	0x3e1fc0fa	0.15600958
120	0x3d910852	0.07081665
121	0x3e3cdd31	0.18443753
122	0x3d1b1d03	0.037869465
123	0xbdfe5719	-0.12418956
124	0xbe3d815e	-0.18506381
125	0xbe5e98eb	-0.21738021
126	0x3e38d2f7	0.18049227
127	0xbe422732	-0.18960264
128	0x3e494629	0.1965567
129	0x3d53d677	0.0517182
130	0x3d9baa04	0.07600787
131	0x3e2715d3	0.16316919
132	0x3ec63995	0.38715807
133	0xbe111df0	-0.14171576
134	0xbe120c27	-0.14262448
135	0x3eda9b29	0.42696503
136	0xbe8fa2ed	-0.2805399
137	0x3d174606	0.036932014
138	0xbe21929c	-0.15778583
139	0xbddb9571	-0.10721863
140	0xbe78f327	-0.24311505
141	0x3e5395c0	0.20662594
142	0xbed03260	-0.40663433
143	0xbe5c691a	-0.21524468
144	0x3dbd59db	0.09245654
145	0xbdb2eccc	-0.08736572
146	0x3df58bab	0.1198953
147	0xbd15c1dd	-0.036561836
148	0x3df8e442	0.12152912
149	0x3d8618b4	0.065476805
150	0xbcfc640e	-0.030809429
151	0x3e6205f3	0.22072582
152	0x3e60656f	0.21913694
153	0xbdc7e021	-0.09759546
154	0xbe47ee7e	-0.19524571
155	0x3db4b073	0.088227175
156	0x3e197b9d	0.14988561
157	0x3e8a35dd	0.2699422
158	0x3d3e1db0	0.04641503
159	0x3e487631	0.19576336
160	0xbc54236b	-0.012947897
161	0xbe408f29	-0.18804611
162	0xbe1557cb	-0.14584272
163	0x3da5b18a	0.080905035
164	0xbe45615b	-0.1927542
165	0xbe6b128d	-0.22956295
166	0x3d113909	0.035454784
167	0x3e314123	0.17310004
168	0x3e55b2e4	0.20869023
169	0x3d12c359	0.03583083
170	0xbdfecd0a	-0.12441452
171	0xbd765e86	-0.06014874
172	0x3df3e0b3	0.11908092
173	0xbd049dd3	-0.032377075
174	0x3e0aaee2	0.13543275
175	0xbd707890	-0.058708727
176	0x3d821e08	0.06353384
177	0xbe3582f3	-0.17725734
178	0x3cb51473	0.022104478
179	0x3c3a7cd5	0.011382301
180	0xbe01a747	-0.12661467
181	0xbd756942	-0.059914835
182	0xbe4ed9bb	-0.20200245
183	0x3e410bde	0.18852183
184	0x3e6dd125	0.23224314
185	0xbd1f860a	-0.03894619
186	0xbe062fff	-0.13104247
187	0xbd246401	-0.040134434
188	0xbdaff83b	-0.08592268
189	0xbe8849ab	-0.26618704
190	0x3e8b4f2d	0.27208844
191	0xbdfc1468	-0.1230858
192	0x3e08fd87	0.13377963
193	0xbdfc3db8	-0.123164594
194	0x3daa7591	0.08323205
195	0x3d5c3ad9	0.05376706
196	0x3e66b606	0.22530374
197	0xbe3e8507	-0.18605433
198	0xbde51bbd	-0.11186931
199	0xbd3627df	-0.044471618
200	0xbeb8d4d0	-0.36099863
201	0xbdef2323	-0.11676624
202	0xbea0205f	-0.31274697
203	0x3ec9c18d	0.3940548
204	0xbdd8bba2	-0.10582663
205	0x3e67def3	0.22643642
206	0xbeb19b1b	-0.3468865
207	0xbd20e83a	-0.03928397
208	0xbd05c027	-0.032653954
209	0xbd542737	-0.05179521
210	0x3d0bca73	0.034128617
211	0x3d20615a	0.03915534
212	0x3e1d4e00	0.15361786
213	0xbd3a945d	-0.045551647
214	0xbe374fd0	-0.1790154
215	0xbe50cc67	-0.20390473
216	0x3d7ce9f9	0.06174657
217	0xbdd7c6ca	-0.10535963
218	0xbdc6bed5	-0.09704367
219	0x3eaaf13a	0.33387166
220	0x3eacd54f	0.33756492
221	0x3e1484ed	0.14503832
222	0x3e2b1d47	0.16710387
223	0x3d4b6e32	0.049665637
224	0x3dd0d758	0.101973236
225	0xbe3f6958	-0.18692529
226	0xbc9d2763	-0.01918382
227	0x3d04bd4e	0.032407098
228	0xbd84191f	-0.06450104
229	0xbe223f2b	-0.15844409
230	0xbebdbb8a	-0.37057143
231	0xbd870f48	-0.065947115
232	0x3e249182	0.16071132
233	0xbe2f471e	-0.17116973
234	0xbeac7766	-0.33684844
235	0x3ead943e	0.33902162
236	0x3e55a97d	0.20865436
237	0xbcfcd1c0	-0.030861735
238	0x3e417e72	0.18895891
239	0xbea1bd6d	-0.31589833
240	0x3c0c5340	0.00856477
241	0x3e3def75	0.18548377
242	0x3e46a6bc	0.19399542
243	0x3d247bba	0.040157057
244	0xbeca45b0	-0.39506292
245	0xbd99868c	-0.07496366
246	0xbf005be4	-0.50140214
247	0xbe2ddd6e	-0.16979
248	0x3e8e78f2	0.2782665
249	0xbea0ef65	-0.31432644
250	0xbe9f4e3e	-0.31114382
251	0x3ebd0628	0.3691876
252	0xbdadd5b7	-0.084880285
253	0xbe802485	-0.25027862
254	0x3e847405	0.25869766
255	0xbe9239d9	-0.2855976

conv2d_1/Conv2D_bias f4 [32]
0	0xbe99d248	-0.30043244
1	0xbec09d47	-0.37619993
2	0x3e533aa2	0.20627835
3	0xbe82a74f	-0.2551827
4	0x3eda2b62	0.42611223
5	0xbe3421d9	-0.17591037
6	0x3e955c7e	0.29172128
7	0xbcfb83cf	-0.0307025
8	0xbec9a4f3	-0.3938366
9	0x3dde96fb	0.10868641
10	0x3f1cbe14	0.61227536
11	0xbf1765b2	-0.5913955
12	0x3e91e353	0.28493747
13	0xbe9473a0	-0.28994465
14	0x3e32e912	0.17471722
15	0xbf21b5bf	-0.6316795
16	0xbea4c538	-0.32181716
17	0x3ebf76a5	0.37395206
18	0x3eb5fe25	0.3554546
19	0xbe5bff89	-0.21484198
20	0xbe5dc3f1	-0.21656777
21	0x3cf363eb	0.02971073
22	0xbe68282e	-0.22671577
23	0x3e2027ee	0.15640232
24	0xbf291201	-0.66043097
25	0xbef6a892	-0.48175484
26	0xbefa3e12	-0.4887548
27	0xbec9cda0	-0.39414692
28	0x3d098038	0.033569545
29	0x3f0e1133	0.55494994
30	0xbe525d3f	-0.20543383
31	0xbe9fb39c	-0.3119172

conv2d_1/kernel i1 [32, 4, 4, 16] scale=0.0088748215 zero_point=0
0	0x12	0.15974678
1	0x0c	0.106497854
2	0xfb	-0.04437411
3	0x06	0.053248927
4	0xe0	-0.2839943
5	0x18	0.21299571
6	0xfc	-0.035499286
7	0x09	0.07987339
8	0x0a	0.08874822
9	0x1b	0.23962018
10	0x02	0.017749643
11	0xdf	-0.29286912
12	0xfd	-0.026624463
13	0xeb	-0.18637125
14	0x03	0.026624463
15	0x0a	0.08874822
16	0x06	0.053248927
17	0x04	0.035499286
18	0x03	0.026624463
19	0xfb	-0.04437411
20	0xf3	-0.11537268
21	0xff	-0.0088748215
22	0x20	0.2839943
23	0x21	0.29286912
24	0xda	-0.33724323
25	0x0a	0.08874822
26	0x0e	0.1242475
27	0xfc	-0.035499286
28	0xf6	-0.08874822
29	0x17	0.20412089
30	0xbc	-0.60348785
31	0x00	0.0
32	0x0d	0.11537268
33	0x08	0.07099857
34	0x0e	0.1242475
35	0x0a	0.08874822
36	0xf3	-0.11537268
37	0x1b	0.23962018
38	0x17	0.20412089
39	0x28	0.35499287
40	0x04	0.035499286
41	0x15	0.18637125
42	0x25	0.3283684
43	0xf1	-0.13312232
44	0x05	0.04437411
45	0xf5	-0.097623035
46	0x07	0.06212375
47	0x1d	0.25736982
48	0x21	0.29286912
49	0xf4	-0.106497854
50	0xf2	-0.1242475
51	0x21	0.29286912
52	0xe7	-0.22187054
53	0xf4	-0.106497854
54	0xfb	-0.04437411
55	0x20	0.2839943
56	0x28	0.35499287
57	0x10	0.14199714
58	0x10	0.14199714
59	0xdc	-0.31949356
60	0x33	0.4526159
61	0x18	0.21299571
62	0x2e	0.40824178
63	0xf9	-0.06212375
64	0xfa	-0.053248927
65	0x17	0.20412089
66	0x03	0.026624463
67	0xf9	-0.06212375
68	0xda	-0.33724323
69	0x12	0.15974678
70	0x07	0.06212375
71	0x06	0.053248927
72	0xf8	-0.07099857
73	0x00	0.0
74	0xfe	-0.017749643
75	0x01	0.0088748215
76	0xf0	-0.14199714
77	0xf7	-0.07987339
78	0x02	0.017749643
79	0x0d	0.11537268
80	0xf0	-0.14199714
81	0x15	0.18637125
82	0x04	0.035499286
83	0xe2	-0.26624465
84	0x0d	0.11537268
85	0x0e	0.1242475
86	0x1f	0.27511945
87	0xe2	-0.26624465
88	0xbe	-0.58573824
89	0xf7	-0.07987339
90	0x10	0.14199714
91	0x0f	0.13312232
92	0xef	-0.15087196
93	0x0a	0.08874822
94	0xb1	-0.7011109
95	0x03	0.026624463
96	0xfb	-0.04437411
97	0x08	0.07099857
98	0x10	0.14199714
99	0x05	0.04437411
100	0xe6	-0.23074536
101	0x12	0.15974678
102	0x13	0.16862161
103	0xf5	-0.097623035
104	0xf2	-0.1242475
105	0xfb	-0.04437411
106	0x10	0.14199714
107	0xfe	-0.017749643
108	0xe3	-0.25736982
109	0xd7	-0.36386767
110	0x03	0.026624463
111	0x0f	0.13312232
112	0x24	0.31949356
113	0x03	0.026624463
114	0x0d	0.11537268
115	0x2f	0.4171166
116	0xeb	-0.18637125
117	0x01	0.0088748215
118	0xe8	-0.21299571
119	0xf8	-0.07099857
120	0x36	0.47924036
121	0x1c	0.248495
122	0xff	-0.0088748215
123	0xe6	-0.23074536
124	0x31	0.43486625
125	0x16	0.19524607
126	0x3b	0.52361447
127	0xf7	-0.07987339
128	0xe9	-0.20412089
129	0xfe	-0.017749643
130	0xfb	-0.04437411
131	0xe4	-0.248495
132	0xe5	-0.23962018
133	0x09	0.07987339
134	0xde	-0.30174392
135	0xef	-0.15087196
136	0x1c	0.248495
137	0xf8	-0.07099857
138	0xad	-0.7366102
139	0x05	0.04437411
140	0xef	-0.15087196
141	0xf1	-0.13312232
142	0x0c	0.106497854
143	0x19	0.22187054
144	0xee	-0.15974678
145	0xfb	-0.04437411
146	0xfa	-0.053248927
147	0xea	-0.19524607
148	0x1e	0.26624465
149	0x0d	0.11537268
150	0xef	-0.15087196
151	0xf4	-0.106497854
152	0xcd	-0.4526159
153	0xc3	-0.54136413
154	0xb2	-0.69223607
155	0x19	0.22187054
156	0xdb	-0.3283684
157	0x17	0.20412089
158	0xc5	-0.52361447
159	0x09	0.07987339
160	0xfa	-0.053248927
161	0x0b	0.097623035
162	0x09	0.07987339
163	0xf7	-0.07987339
164	0xd4	-0.39049214
165	0x15	0.18637125
166	0xff	-0.0088748215
167	0x05	0.04437411
168	0x00	0.0
169	0xda	-0.33724323
170	0xd2	-0.40824178
171	0x0d	0.11537268
172	0xf8	-0.07099857
173	0xe3	-0.25736982
174	0x18	0.21299571
175	0x0f	0.13312232
176	0x23	0.31061876
177	0xf5	-0.097623035
178	0xf3	-0.11537268
179	0x29	0.36386767
180	0xe3	-0.25736982
181	0x05	0.04437411
182	0xd1	-0.4171166
183	0xf9	-0.06212375
184	0x2a	0.3727425
185	0xf5	-0.097623035
186	0xc2	-0.5502389
187	0x0f	0.13312232
188	0x2f	0.4171166
189	0x0c	0.106497854
190	0x32	0.44374108
191	0xff	-0.0088748215
192	0xfc	-0.035499286
193	0xf7	-0.07987339
194	0x01	0.0088748215
195	0xe8	-0.21299571
196	0xd7	-0.36386767
197	0xfa	-0.053248927
198	0xfb	-0.04437411
199	0xf9	-0.06212375
200	0x23	0.31061876
201	0xe2	-0.26624465
202	0xe8	-0.21299571
203	0x12	0.15974678
204	0xf1	-0.13312232
205	0xe8	-0.21299571
206	0x16	0.19524607
207	0x10	0.14199714
208	0xf0	-0.14199714
209	0xff	-0.0088748215
210	0xf2	-0.1242475
211	0xe5	-0.23962018
212	0x15	0.18637125
213	0xf6	-0.08874822
214	0x0a	0.08874822
215	0xf1	-0.13312232
216	0xc4	-0.5324893
217	0xe2	-0.26624465
218	0x02	0.017749643
219	0x0b	0.097623035
220	0xe7	-0.22187054
221	0x13	0.16862161
222	0xaf	-0.71886057
223	0x06	0.053248927
224	0xed	-0.16862161
225	0x0c	0.106497854
226	0x07	0.06212375
227	0xf6	-0.08874822
228	0xe3	-0.25736982
229	0x16	0.19524607
230	0xfd	-0.026624463
231	0xd7	-0.36386767
232	0xf0	-0.14199714
233	0xe7	-0.22187054
234	0x0e	0.1242475
235	0x02	0.017749643
236	0xfb	-0.04437411
237	0xcf	-0.43486625
238	0x14	0.17749643
239	0x04	0.035499286
240	0x2b	0.38161734
241	0xf7	-0.07987339
242	0xf1	-0.13312232
243	0x21	0.29286912
244	0x01	0.0088748215
245	0xf6	-0.08874822
246	0xf4	-0.106497854
247	0xfe	-0.017749643
248	0x22	0.30174392
249	0x0a	0.08874822
250	0x26	0.33724323
251	0xf5	-0.097623035
252	0x2c	0.39049214
253	0x1d	0.25736982
254	0x29	0.36386767
255	0xe8	-0.21299571

conv2d_2/Conv2D_bias f4 [32]
0	0xbe94c04b	-0.29052958
1	0xbeb0a353	-0.34499606
2	0xbe5bc892	-0.2146323
3	0xbe978d58	-0.29600024
4	0xbf2c7da3	-0.67379206
5	0xbeddc440	-0.4331379
6	0xbe8f26d3	-0.27959308
7	0xbe121bc0	-0.14268398
8	0xbf21f15a	-0.632589
9	0xbea0a81e	-0.31378263
10	0xbe80b9be	-0.2514171
11	0x3d506dc4	0.05088593
12	0xbf1acebd	-0.6047171
13	0xbe0f7e3c	-0.14012998
14	0xbe862074	-0.26196635
15	0xbeed45e5	-0.46342388
16	0xbeb99fb4	-0.36254656
17	0xbb918201	-0.0044405465
18	0xbe7426b7	-0.23842894
19	0xbe8d6c74	-0.27621806
20	0xbe92bbe3	-0.2865897
21	0x3dc54cfa	0.09633823
22	0xbe0d7e44	-0.13817698
23	0xbefd08fe	-0.49420923
24	0xbe28c843	-0.16482644
25	0xbe5b3b84	-0.21409422
26	0xbf090b5f	-0.53532976
27	0xbf50b9fd	-0.81533796
28	0xbe27af93	-0.1637557
29	0xbc6a849e	-0.014313845
30	0xbe6dc18d	-0.23218365
31	0xbef9cd69	-0.48789528

conv2d_2/kernel i1 [32, 4, 4, 32] scale=0.008461983 zero_point=0
0	0x0e	0.11846776
1	0x30	0.4061752
2	0x0b	0.09308181
3	0xf5	-0.09308181
4	0x0b	0.09308181
5	0x2b	0.36386526
6	0xfa	-0.0507719
7	0x0f	0.12692975
8	0x14	0.16923966
9	0x33	0.43156114
10	0xf4	-0.1015438
11	0xfa	-0.0507719
12	0xd4	-0.37232724
13	0xec	-0.16923966
14	0x24	0.30463138
15	0x08	0.06769586
16	0xf9	-0.05923388
17	0x05	0.042309914
18	0xed	-0.16077767
19	0x1b	0.22847354
20	0xf8	-0.06769586
21	0x1e	0.2538595
22	0xda	-0.32155535
23	0xf1	-0.12692975
24	0x15	0.17770164
25	0xfa	-0.0507719
26	0x16	0.18616362
27	0x10	0.13539173
28	0x11	0.14385371
29	0xdc	-0.30463138
30	0xeb	-0.17770164
31	0xe6	-0.22001156
32	0x16	0.18616362
33	0x23	0.2961694
34	0x0a	0.08461983
35	0xf2	-0.11846776
36	0x35	0.4484851
37	0x1d	0.24539751
38	0x08	0.06769586
39	0xf8	-0.06769586
40	0x05	0.042309914
41	0x16	0.18616362
42	0x08	0.06769586
43	0xeb	-0.17770164
44	0xdd	-0.2961694
45	0xe2	-0.2538595
46	0x1a	0.22001156
47	0xfb	-0.042309914
48	0x01	0.008461983
49	0x18	0.2030876
50	0xf0	-0.13539173
51	0x13	0.16077767
52	0x09	0.076157846
53	0x1d	0.24539751
54	0xe0	-0.27078345
55	0xf8	-0.06769586
56	0x20	0.27078345
57	0xed	-0.16077767
58	0x2f	0.39771318
59	0x35	0.4484851
60	0xfe	-0.016923966
61	0xd1	-0.39771318
62	0xda	-0.32155535
63	0xee	-0.15231569
64	0x13	0.16077767
65	0x1d	0.24539751
66	0x0d	0.11000578
67	0xf0	-0.13539173
68	0x38	0.47387105
69	0xff	-0.008461983
70	0xc3	-0.51618093
71	0xe6	-0.22001156
72	0x00	0.0
73	0x11	0.14385371
74	0xfc	-0.03384793
75	0xed	-0.16077767
76	0xcc	-0.44002312
77	0x09	0.076157846
78	0x25	0.31309336
79	0xfd	-0.02538595
80	0x04	0.03384793
81	0x16	0.18616362
82	0xeb	-0.17770164
83	0x13	0.16077767
84	0xfb	-0.042309914
85	0x1c	0.23693553
86	0xe8	-0.2030876
87	0xf1	-0.12692975
88	0x1d	0.24539751
89	0xfb	-0.042309914
90	0x29	0.3469413
91	0x2c	0.37232724
92	0xf2	-0.11846776
93	0xdd	-0.2961694
94	0xd3	-0.38078922
95	0xe6	-0.22001156
96	0xfd	-0.02538595
97	0x0c	0.1015438
98	0xfc	-0.03384793
99	0xe2	-0.2538595
100	0x2f	0.39771318
101	0xdd	-0.2961694
102	0xc3	-0.51618093
103	0xdf	-0.27924544
104	0xee	-0.15231569
105	0x0d	0.11000578
106	0x07	0.05923388
107	0xe1	-0.26232147
108	0xe2	-0.2538595
109	0x10	0.13539173
110	0x1b	0.22847354
111	0xed	-0.16077767
112	0x00	0.0
113	0x17	0.1946256
114	0xf9	-0.05923388
115	0x03	0.02538595
116	0xfa	-0.0507719
117	0x05	0.042309914
118	0xf8	-0.06769586
119	0xda	-0.32155535
120	0x1e	0.2538595
121	0x04	0.03384793
122	0x2c	0.37232724
123	0x1f	0.26232147
124	0xe8	-0.2030876
125	0xe6	-0.22001156
126	0x14	0.16923966
127	0xeb	-0.17770164
128	0x11	0.14385371
129	0x23	0.2961694
130	0x2b	0.36386526
131	0x05	0.042309914
132	0xe4	-0.23693553
133	0x3b	0.499257
134	0xf0	-0.13539173
135	0x19	0.21154958
136	0xfa	-0.0507719
137	0xfd	-0.02538595
138	0x01	0.008461983
139	0xfe	-0.016923966
140	0xd7	-0.3469413
141	0xf3	-0.11000578
142	0x19	0.21154958
143	0xeb	-0.17770164
144	0x09	0.076157846
145	0xe5	-0.22847354
146	0xdb	-0.31309336
147	0x0d	0.11000578
148	0x15	0.17770164
149	0xf5	-0.09308181
150	0xd2	-0.3892512
151	0x13	0.16077767
152	0x0a	0.08461983
153	0xf2	-0.11846776
154	0xe5	-0.22847354
155	0xf5	-0.09308181
156	0x2c	0.37232724
157	0xf3	-0.11000578
158	0xe4	-0.23693553
159	0xe0	-0.27078345
160	0x30	0.4061752
161	0x25	0.31309336
162	0x0c	0.1015438
163	0x12	0.15231569
164	0x0e	0.11846776
165	0x1c	0.23693553
166	0xe8	-0.2030876
167	0x0f	0.12692975
168	0xe4	-0.23693553
169	0xf3	-0.11000578
170	0x1c	0.23693553
171	0xee	-0.15231569
172	0xee	-0.15231569
173	0xeb	-0.17770164
174	0x29	0.3469413
175	0xec	-0.16923966
176	0x18	0.2030876
177	0xe3	-0.24539751
178	0xe5	-0.22847354
179	0x06	0.0507719
180	0x20	0.27078345
181	0xe9	-0.1946256
182	0xeb	-0.17770164
183	0x05	0.042309914
184	0x1b	0.22847354
185	0xd7	-0.3469413
186	0xea	-0.18616362
187	0x19	0.21154958
188	0x19	0.21154958
189	0x09	0.076157846
190	0xe0	-0.27078345
191	0xf3	-0.11000578
192	0x28	0.3384793
193	0x12	0.15231569
194	0x21	0.27924544
195	0xfe	-0.016923966
196	0x23	0.2961694
197	0x15	0.17770164
198	0xcd	-0.43156114
199	0x01	0.008461983
200	0xd6	-0.35540327
201	0x06	0.0507719
202	0x23	0.2961694
203	0xe7	-0.21154958
204	0xd6	-0.35540327
205	0x0b	0.09308181
206	0x2e	0.3892512
207	0xe3	-0.24539751
208	0x11	0.14385371
209	0x02	0.016923966
210	0xe1	-0.26232147
211	0x16	0.18616362
212	0x29	0.3469413
213	0x02	0.016923966
214	0xfb	-0.042309914
215	0x08	0.06769586
216	0x1f	0.26232147
217	0xef	-0.14385371
218	0x06	0.0507719
219	0x1c	0.23693553
220	0x08	0.06769586
221	0xfc	-0.03384793
222	0xcd	-0.43156114
223	0xe5	-0.22847354
224	0x0f	0.12692975
225	0x09	0.076157846
226	0x20	0.27078345
227	0xf6	-0.08461983
228	0x10	0.13539173
229	0xef	-0.14385371
230	0xcd	-0.43156114
231	0xf6	-0.08461983
232	0xe1	-0.26232147
233	0xe8	-0.2030876
234	0x23	0.2961694
235	0xee	-0.15231569
236	0xf4	-0.1015438
237	0x12	0.15231569
238	0x20	0.27078345
239	0xcf	-0.41463718
240	0x0b	0.09308181
241	0xf4	-0.1015438
242	0xdc	-0.30463138
243	0x02	0.016923966
244	0x34	0.44002312
245	0xf5	-0.09308181
246	0x09	0.076157846
247	0x0f	0.12692975
248	0x14	0.16923966
249	0xf0	-0.13539173
250	0x11	0.14385371
251	0x0f	0.12692975
252	0x04	0.03384793
253	0xeb	-0.17770164
254	0x0c	0.1015438
255	0xeb	-0.17770164

conv2d_3/Conv2D_bias f4 [64]
0	0xbe84d12a	-0.2594083
1	0xbe54bd3e	-0.20775315
2	0xbec5cc2d	-0.38632336
3	0xbe557d27	-0.20848523
4	0xbdc44817	-0.095840625
5	0xbf10ac4f	-0.5651292
6	0xbe39c775	-0.18142493
7	0xbd9a3b3e	-0.07530831
8	0xbee8b8bf	-0.4545345
9	0xbde2d207	-0.11075216
10	0xbee307bf	-0.44341847
11	0xbe3bad84	-0.1832791
12	0xbea94baf	-0.33065554
13	0xbe58c439	-0.21168603
14	0xbe93e759	-0.28887442
15	0xbe4c553b	-0.19954388
16	0xbda4b00e	-0.08041392
17	0xbdeda14f	-0.11603033
18	0xbe868d59	-0.26279715
19	0xbe8bf5c1	-0.27335933
20	0xbe5f8d47	-0.21831237
21	0xbe6ee398	-0.23329008
22	0xbb9df186	-0.0048200516
23	0xbe779d2b	-0.24181049
24	0xbe8c5fab	-0.2741674
25	0xbee86015	-0.45385805
26	0xbea9ac7c	-0.33139408
27	0xbe886513	-0.26639614
28	0xbe1b420c	-0.15161914
29	0xbde88a0b	-0.113544546
30	0xbe9c4b12	-0.30526024
31	0xbe8e57bf	-0.2780132
32	0xbe499632	-0.19686201
33	0xbf1c7edc	-0.6113107
34	0xbea76683	-0.32695398
35	0xbef423a8	-0.47683454
36	0xbeca9224	-0.3956462
37	0xbee92875	-0.4553868
38	0xbf21e335	-0.63237315
39	0xbe800a4a	-0.2500785
40	0xbe6b4507	-0.2297555
41	0xbf873cf0	-1.0565472
42	0xbe9b2b2d	-0.30306378
43	0xbeeb24c8	-0.459265
44	0xbcceb76c	-0.025233947
45	0xbe369325	-0.17829569
46	0xbec2d155	-0.38050333
47	0xbf01937c	-0.5061567
48	0xbd739264	-0.05946578
49	0xbf1b834e	-0.6074723
50	0xbf122c98	-0.57099295
51	0xbe15ce80	-0.14629555
52	0xbe345517	-0.17610584
53	0xbec93fea	-0.39306575
54	0xbe97c96e	-0.29645866
55	0x3e37ce41	0.17949773
56	0xbf044e88	-0.5168233
57	0xbea84973	-0.32868537
58	0x3df7ac91	0.12093461
59	0x3c1e785a	0.009672249
60	0xbe8dd01d	-0.2769784
61	0xbe9e5e12	-0.30931145
62	0xbe521fb0	-0.205199
63	0xbd80ecc4	-0.062951595

conv2d_3/kernel i1 [64, 4, 4, 32] scale=0.00972663 zero_point=0
0	0xf0	-0.15562607
1	0x0f	0.14589944
2	0xc3	-0.5933244
3	0x0a	0.097266294
4	0x0e	0.13617282
5	0xf2	-0.13617282
6	0x04	0.03890652
7	0xfb	-0.048633147
8	0x02	0.01945326
9	0x25	0.3598853
10	0xec	-0.19453259
11	0x14	0.19453259
12	0x0b	0.10699292
13	0xed	-0.18480596
14	0x11	0.1653527
15	0x20	0.31125215
16	0x18	0.23343912
17	0xff	-0.00972663
18	0xf4	-0.11671956
19	0x07	0.06808641
20	0x0f	0.14589944
21	0xba	-0.6808641
22	0xf7	-0.087539665
23	0xef	-0.1653527
24	0x07	0.06808641
25	0xe5	-0.262619
26	0x18	0.23343912
27	0x16	0.21398585
28	0x1c	0.27234563
29	0xeb	-0.20425922
30	0xe5	-0.262619
31	0x00	0.0
32	0x01	0.00972663
33	0xef	-0.1653527
34	0xcb	-0.5155114
35	0xf2	-0.13617282
36	0x16	0.21398585
37	0xf6	-0.097266294
38	0xe1	-0.3015255
39	0xe4	-0.27234563
40	0xee	-0.17507933
41	0x41	0.63223094
42	0xf1	-0.14589944
43	0x14	0.19453259
44	0xf0	-0.15562607
45	0xe5	-0.262619
46	0xe4	-0.27234563
47	0x08	0.07781304
48	0xfd	-0.02917989
49	0xeb	-0.20425922
50	0xfa	-0.05835978
51	0x08	0.07781304
52	0xfe	-0.01945326
53	0xd4	-0.4279717
54	0xf8	-0.07781304
55	0xf0	-0.15562607
56	0x04	0.03890652
57	0xe2	-0.2917989
58	0x10	0.15562607
59	0x05	0.048633147
60	0x0b	0.10699292
61	0x14	0.19453259
62	0xeb	-0.20425922
63	0xfd	-0.02917989
64	0x0b	0.10699292
65	0xf7	-0.087539665
66	0xd0	-0.46687824
67	0xed	-0.18480596
68	0x1e	0.2917989
69	0x1e	0.2917989
70	0xdf	-0.3209788
71	0x12	0.17507933
72	0xfa	-0.05835978
73	0x09	0.087539665
74	0xe8	-0.23343912
75	0x09	0.087539665
76	0xea	-0.21398585
77	0xca	-0.525238
78	0xfd	-0.02917989
79	0x06	0.05835978
80	0xfe	-0.01945326
81	0xdd	-0.34043205
82	0xf0	-0.15562607
83	0x22	0.3307054
84	0x10	0.15562607
85	0xe0	-0.31125215
86	0xe9	-0.22371247
87	0xd5	-0.41824508
88	0xd8	-0.38906518
89	0xf3	-0.12644619
90	0x11	0.1653527
91	0x1b	0.262619
92	0x00	0.0
93	0xfa	-0.05835978
94	0x0c	0.11671956
95	0x0a	0.097266294
96	0xfb	-0.048633147
97	0x20	0.31125215
98	0xec	-0.19453259
99	0xfe	-0.01945326
100	0x24	0.35015866
101	0x0e	0.13617282
102	0xe4	-0.27234563
103	0x05	0.048633147
104	0x10	0.15562607
105	0xf4	-0.11671956
106	0xf9	-0.06808641
107	0x14	0.19453259
108	0x01	0.00972663
109	0xe1	-0.3015255
110	0x1b	0.262619
111	0x14	0.19453259
112	0x26	0.36961192
113	0xcd	-0.4960581
114	0xf5	-0.10699292
115	0x13	0.18480596
116	0x01	0.00972663
117	0xfe	-0.01945326
118	0x0c	0.11671956
119	0xca	-0.525238
120	0xff	-0.00972663
121	0x0a	0.097266294
122	0x1e	0.2917989
123	0x26	0.36961192
124	0xf9	-0.06808641
125	0x13	0.18480596
126	0x1b	0.262619
127	0x0c	0.11671956
128	0xf0	-0.15562607
129	0x0d	0.12644619
130	0xdd	-0.34043205
131	0x05	0.048633147
132	0xfc	-0.03890652
133	0xed	-0.18480596
134	0x0f	0.14589944
135	0x16	0.21398585
136	0xf2	-0.13617282
137	0xf7	-0.087539665
138	0xf1	-0.14589944
139	0xee	-0.17507933
140	0x15	0.20425922
141	0x13	0.18480596
142	0x12	0.17507933
143	0x07	0.06808641
144	0x04	0.03890652
145	0x0b	0.10699292
146	0x12	0.17507933
147	0x02	0.01945326
148	0x0a	0.097266294
149	0xac	-0.81703687
150	0x36	0.525238
151	0x29	0.39879182
152	0x25	0.3598853
153	0xec	-0.19453259
154	0x06	0.05835978
155	0x0c	0.11671956
156	0x36	0.525238
157	0x1b	0.262619
158	0x1a	0.25289237
159	0xbe	-0.6419576
160	0xf4	-0.11671956
161	0xf1	-0.14589944
162	0x04	0.03890652
163	0xed	-0.18480596
164	0x03	0.02917989
165	0xf6	-0.097266294
166	0x16	0.21398585
167	0x0b	0.10699292
168	0xf3	-0.12644619
169	0x07	0.06808641
170	0xf2	-0.13617282
171	0xfe	-0.01945326
172	0xdf	-0.3209788
173	0x02	0.01945326
174	0xea	-0.21398585
175	0xea	-0.21398585
176	0x08	0.07781304
177	0xe9	-0.22371247
178	0x29	0.39879182
179	0xf2	-0.13617282
180	0xf2	-0.13617282
181	0xd8	-0.38906518
182	0x0e	0.13617282
183	0x13	0.18480596
184	0x1a	0.25289237
185	0xf1	-0.14589944
186	0xe5	-0.262619
187	0xf4	-0.11671956
188	0xf6	-0.097266294
189	0x2f	0.4571516
190	0x2b	0.41824508
191	0xda	-0.36961192
192	0xfa	-0.05835978
193	0xed	-0.18480596
194	0x07	0.06808641
195	0x12	0.17507933
196	0xfd	-0.02917989
197	0x0a	0.097266294
198	0x12	0.17507933
199	0x03	0.02917989
200	0x07	0.06808641
201	0x02	0.01945326
202	0xe4	-0.27234563
203	0x22	0.3307054
204	0xc0	-0.6225043
205	0xed	-0.18480596
206	0xe2	-0.2917989
207	0x09	0.087539665
208	0x03	0.02917989
209	0x03	0.02917989
210	0x13	0.18480596
211	0x1d	0.28207225
212	0xd3	-0.43769833
213	0xe7	-0.24316575
214	0x0c	0.11671956
215	0xee	-0.17507933
216	0xdd	-0.34043205
217	0xf5	-0.10699292
218	0xee	-0.17507933
219	0x01	0.00972663
220	0x08	0.07781304
221	0x06	0.05835978
222	0x22	0.3307054
223	0xe0	-0.31125215
224	0xfb	-0.048633147
225	0x01	0.00972663
226	0xfe	-0.01945326
227	0x18	0.23343912
228	0x09	0.087539665
229	0x18	0.23343912
230	0xf6	-0.097266294
231	0xfc	-0.03890652
232	0x05	0.048633147
233	0x0c	0.11671956
234	0xf3	-0.12644619
235	0x19	0.24316575
236	0xdc	-0.35015866
237	0xf2	-0.13617282
238	0x08	0.07781304
239	0x09	0.087539665
240	0x23	0.34043205
241	0xe3	-0.28207225
242	0x07	0.06808641
243	0x09	0.087539665
244	0xf8	-0.07781304
245	0x07	0.06808641
246	0x18	0.23343912
247	0xdc	-0.35015866
248	0xeb	-0.20425922
249	0xf0	-0.15562607
250	0x17	0.22371247
251	0x0a	0.097266294
252	0xf8	-0.07781304
253	0xf6	-0.097266294
254	0x34	0.50578475
255	0xde	-0.3307054
