raspberry_pi/Models/128_x_64_2D.tflite (tflite, 285168 bytes, 30 tensors)

batch_normalization/FusedBatchNorm_add_param f4 [16]
00000000: 5ed1 cabe a6d0 12be 7aad 48bf 7fea 57bf
00000010: 3734 06be b458 f0bd 165f 32bf 533c 86be
00000020: 47a7 24be 21bc 0dbf a895 b8bf eb93 8bbe
00000030: e423 44be dc15 40bf 36bd 1cbe 0b97 a4bf
-0.3961286 -0.14337406 -0.78389704 -0.8434219 -0.13105856 -0.11735669 -0.6967634 -0.262179
-0.16079436 -0.55365187 -1.4420671 -0.2726129 -0.19154316 -0.75033355 -0.15306553 -1.2858595

batch_normalization/FusedBatchNorm_mul_0_param f4 [16]
00000000: edd6 4f3e dfca 853e 4388 fe3d 6cf2 103d
00000010: 99a3 643f 688a 6d3e f033 cf3d 53a8 863e
00000020: 539e 613e ca87 0c3e 32fa 8d3e 0795 8a3e
00000030: 42d3 273e 2845 0f3e 4765 713e c9a3 873e
0.20296831 0.2613134 0.124283336 0.03538744 0.8931213 0.23197329 0.10117328 0.26300296
0.22033052 0.13723674 0.27729946 0.27066824 0.16389182 0.13991225 0.2357379 0.26492146

batch_normalization_1/FusedBatchNorm_add_param f4 [32]
00000000: 2ef7 6dbe f08d 7dbd dbc9 d7be 359f aebe
00000010: 4a8c c8be 7204 42bf 10f3 873c ad58 73be
00000020: a4a3 f2be 0011 833c 0e26 d6be 1c3f ccbd
00000030: a20f 233e 1e49 13bf a627 05be 1e6c ecbe
00000040: aaa6 42bf a639 57be 818f 17bf 773b 4fbf
00000050: 709a 823c 1393 d3be caaf babe febe cabd
00000060: b503 56be cfb7 b5be a842 71be 5ee4 87be
00000070: 44bd b5be 5108 4dbe 0955 0ebf 3dfb 86be
-0.23238823 -0.06190294 -0.4214619 -0.3410584 -0.39169532 -0.75788033 0.016595393 -0.23764296
-0.47390473 0.015999317 -0.41825908 -0.09972975 0.15923932 -0.5753344 -0.13003406 -0.46176237
-0.7603556 -0.21018085 -0.59203345 -0.8095011 0.015942782 -0.41323146 -0.3646224 -0.0989971
-0.20899852 -0.35491797 -0.23560584 -0.26541418 -0.3549596 -0.20022704 -0.55598503 -0.26363555

batch_normalization_1/FusedBatchNorm_mul_0_param f4 [32]
00000000: 20e5 4d3e f165 993e d1ad a63e 4163 0e3f
00000010: e695 ed3e 17f8 b73e d077 813e e823 b93e
00000020: 436f cc3e d123 413e 95f0 2b3e 4ae4 6d3e
00000030: f7b5 623e 26dd c73e 2774 963e b615 973d
00000040: 1838 813e f9a4 903e f2c1 023f 8a61 a93e
00000050: 10f8 d33d e7de 4d3e 61fd 1b3f 5a39 fe3d
00000060: 6fb6 a63e 99d7 be3e 1238 703e 60ab ae3d
00000070: cbb0 7a3e c4ee 123e 9f66 523e e851 f83d
0.20106936 0.29960588 0.32554486 0.556202 0.46403426 0.35931465 0.25286722 0.36160207
0.39928636 0.18861319 0.16790994 0.23231617 0.22139727 0.3903591 0.29385492 0.07377188
0.2523811 0.28250864 0.5107719 0.3308223 0.103500485 0.20104562 0.609335 0.12413283
0.3256106 0.37273863 0.23458889 0.08528781 0.24481504 0.14348894 0.2054696 0.121249974

batch_normalization_2/FusedBatchNorm_add_param f4 [32]
00000000: 552d 1cbf e6dc 3bbe 6954 24bf f4b1 85be
00000010: 9bc1 d2be 74f4 46bf 582c a5be 505e abbe
00000020: 68dd 1bbf 7028 30bf 9b67 1abf 934a ccbe
00000030: 50af 4dbf 8469 2bbf c65e 29bf 7061 1dbe
00000040: 25ab 26bf e613 11bf 93fc 37bf 108f bdbe
00000050: fb6a 5dbf fc77 fdbe 203c b4be fc85 a9be
00000060: 6bf4 6bbf c4ac 12bf 78d1 67bf ee1b 5cbe
00000070: 7a28 e6be 37d1 b4be 4826 e0be d8be d6be
-0.6100667 -0.18345985 -0.641913 -0.2611233 -0.41163334 -0.77716756 -0.32260394 -0.33470392
-0.60884714 -0.688117 -0.6031434 -0.39900646 -0.8034563 -0.6695788 -0.6616024 -0.153692
-0.65104896 -0.5667099 -0.7186977 -0.3702321 -0.86491364 -0.49505603 -0.35202122 -0.33110034
-0.9216983 -0.5729487 -0.90554 -0.2149503 -0.44952756 -0.35315868 -0.43779206 -0.41942477

batch_normalization_2/FusedBatchNorm_mul_0_param f4 [32]
00000000: 1bcd 5b3e 4c00 393e f757 243e d3ef d03d
00000010: fd30 713e 1e6a 6c3e fc34 5c3e de85 283e
00000020: 86df 973e ce87 183e 050e 0c3e c0ed 843e
00000030: 0dd5 5e3e c99a a33e b8f1 433e 74a8 473e
00000040: 9975 843e 030c 853e d647 7e3e 438c 2e3e
00000050: a040 8b3e 9a63 853e 4965 4b3e c301 493e
00000060: 641a 613e 3168 3d3e d9db 8a3e e33e 833e
00000070: 9962 643e 8c36 a03e a0d1 463e e27e 813e
0.2146496 0.1806652 0.16049181 0.10201993 0.23553844 0.23087355 0.21504587 0.16457316
0.29662722 0.14895555 0.13677223 0.2596264 0.2176096 0.3195403 0.19135177 0.19497854
0.2587097 0.25985727 0.2483209 0.17045693 0.27197742 0.26052552 0.19862856 0.19629578
0.21982723 0.18496777 0.27120855 0.25633916 0.22303237 0.31291616 0.19415903 0.25292116

batch_normalization_3/FusedBatchNorm_add_param f4 [64]
00000000: 20f9 3f3c 3850 61bd c051 623c 7426 efbd
00000010: 6061 d63d e09e bb3c bcbd 9d3d 84bd 09be
00000020: c216 c4be 6cfa d7bd 46a1 923d 8c9b c4bd
00000030: c29b 333e 517a 83be c26c 0ebf 8a13 04be
00000040: 7a0a b2bd 6c57 d03d 4414 19be 403a 87bf
00000050: 29b8 203e 6069 90bd 3286 acbe 7869 c83c
00000060: b1ce 15be dddc 8ebe 6882 6fbd 2022 c13c
00000070: a846 14bd 28f6 89be dc69 893d e213 433e
00000080: 00bf 8aba 0cf2 00be 426e b13d 9e86 293e
00000090: f0bf 0abd 18de 7bbd 0cd6 c73d 3465 2bbd
000000a0: b839 8a3d f434 25be c5c1 18bf 2ec3 0cbe
000000b0: 14b5 86bd 798e 94be 5036 30be 911c c5be
000000c0: 244e 313d 5cef 85bd 1ce1 1b3e 4054 72bc
000000d0: f6d4 86be 3ccf 213e d6ef 623e 64b8 61be
000000e0: bd33 63be 9878 e13c 6094 1ebe d019 8abd
000000f0: 5834 983d e4da 033e 6076 d63d b005 f43c
0.011717111 -0.055008143 0.013813436 -0.11677256 0.104677916 0.022902906 0.077022046 -0.134512
-0.38298613 -0.10545811 0.07159667 -0.09599981 0.17539886 -0.25679258 -0.556347 -0.12898079
-0.086934045 0.101729244 -0.14949137 -1.0564651 0.15695252 -0.07051349 -0.33696133 0.024464354
-0.14629628 -0.2790288 -0.058473974 0.023575842 -0.036200196 -0.26945615 0.06709644 0.19050553
-0.0010585487 -0.12592334 0.08663608 0.16555259 -0.033874452 -0.061491102 0.09757623 -0.04184456
0.0674929 -0.16133481 -0.5967067 -0.1374633 -0.06577507 -0.29014948 -0.17208219 -0.38498357
0.04328741 -0.06539795 0.15222591 -0.014790595 -0.2633435 0.1580171 0.22161803 -0.22042996
-0.22187705 0.027523324 -0.15486288 -0.067432046 0.07431859 0.12876469 0.10471797 0.029787868

batch_normalization_3/FusedBatchNorm_mul_0_param f4 [64]
00000000: 90d5 3b3f 3061 453e 0322 c03e d29f 353e
00000010: 2599 993e 7bd3 a03e cda7 bc3e feb1 573f
00000020: fa33 a03d dd5a fd3d d8b3 4f3f c280 553e
00000030: 9cf1 eb3e 5936 413d 2a2b ec3e 8b34 f53e
00000040: 3144 6b3e 583f f23e 35c0 a93e 5941 8d3d
00000050: 5af7 ef3e 48be 793e f61b 933d fd3f bd3e
00000060: 75c2 e23e 5074 493e 6020 6e3e c116 6f3e
00000070: d2c5 693e bf4b a83e 8844 243f c179 f43d
00000080: 9485 153f a0fe 803e baaf 493f 273a 4a3f
00000090: 4390 e63e 8b97 1b3f 16c7 b43e 31bf a73e
000000a0: 5c5b a93e d3f5 823e 010a 063f ee19 623e
000000b0: 60ae 293f cf15 a83e 3bdf 0a3e c2bc 8f3e
000000c0: c368 763e 20eb 0f3e a8da a13e 5ee4 923e
000000d0: ec47 f83e 503a 163f 74aa 983e 56e0 4d3e
000000e0: dd19 583f 14df 0e3f 3840 823e d854 033f
000000f0: 4ce4 893f 61cf e13e bdf3 e53d bf0d 0f3e
0.73372746 0.19275355 0.3752595 0.17736748 0.29999653 0.31411347 0.36846772 0.8425597
0.07822414 0.123708464 0.81133795 0.20849898 0.4608277 0.04717097 0.46126682 0.4789165
0.22975232 0.47313952 0.33154455 0.0689723 0.46868402 0.24388993 0.071830675 0.36962882
0.44288984 0.19673276 0.23254538 0.23348524 0.22829369 0.3287029 0.6416707 0.11937285
0.5840695 0.25194263 0.7878376 0.78994983 0.45031938 0.6077811 0.3530814 0.32763055
0.33077514 0.25578174 0.52359015 0.22080204 0.662817 0.3282914 0.13561718 0.28073698
0.24063401 0.14054537 0.31612134 0.28689855 0.48492372 0.5868273 0.29817545 0.20105109
0.84414464 0.5580914 0.2543962 0.51301336 1.0772796 0.4410353 0.1122813 0.13970087

batch_normalization_4/FusedBatchNorm_add_param f4 [64]
00000000: da98 a1bf 452c 68bf 7c25 4abf 2831 a4bf
00000010: 5017 38bf 54e2 80bf e203 04bf 6602 cdbe
00000020: 66c6 46bf a66b 88bf 8545 4cbf 1057 15bf
00000030: e90c 65bf 7b92 2dbf 4e5f 3fbf 4db3 46bf
00000040: 099d 1fbf fd86 2cbf e892 0fbf bd2e 4fbf
00000050: 7d90 7dbf f67f 5cbf 3f0b 3ebf 33fb 3ebf
00000060: 49e9 c5bf a749 cbbe fc65 50bf 755a 22bf
00000070: 34da 4abf 23f8 8dbf 4e91 39bf c044 33bf
00000080: 5a23 62bf d005 81bf d606 6bbf 15f2 66bf
00000090: b9ee e5be 58ec 48bf 5dae 76bf dce7 3cbf
000000a0: f7e6 c2be 507a b7be 2ad9 3ebf df31 84bf
000000b0: a044 03bf e433 19bf 65d6 c4bf 1746 39bf
000000c0: 4cf6 d2be eef5 6dbf 702a 0fbf 1042 c9be
000000d0: 7cd5 7bbf c4b2 68bf 8763 47bf 78af 4ebf
000000e0: 982c 3dbf 7471 25bf f2eb 5abf f5df 12bf
000000f0: 0139 53bf 4445 2bbf a32e 84bf 3627 2dbf
-1.2624772 -0.9069255 -0.78963447 -1.2827501 -0.7191057 -1.006907 -0.51568425 -0.40040892
-0.7764648 -1.0657852 -0.7979358 -0.5833597 -0.89472824 -0.67801636 -0.747548 -0.7761734
-0.6234899 -0.67393476 -0.56083536 -0.8093069 -0.99048597 -0.8613275 -0.7423591 -0.7460205
-1.5461818 -0.3970463 -0.81405616 -0.63419276 -0.792392 -1.109135 -0.7248734 -0.7002678
-0.8833519 -1.0079899 -0.91807306 -0.9021314 -0.44908693 -0.7848563 -0.9635981 -0.7379129
-0.38066837 -0.35835505 -0.74550116 -1.032772 -0.5127659 -0.59844804 -1.5377928 -0.72372574
-0.41203535 -0.92953384 -0.5592413 -0.39308214 -0.98372626 -0.90897775 -0.7788624 -0.80736494
-0.7389617 -0.6462624 -0.85516274 -0.5737298 -0.82508856 -0.66902566 -1.0326732 -0.67637956

batch_normalization_4/FusedBatchNorm_mul_0_param f4 [64]
00000000: 5d97 eb3e ecb2 eb3e 10ce 453f 43f7 2d3f
00000010: 1459 933f f264 e43e d89e 0a3f 831e 403f
00000020: ba3a 193f 25dd ac3e 4ade 813f 1c50 3a3f
00000030: 1b12 d43e 5ecb 8b3f 7ac6 483f c436 273f
00000040: 4295 5a3f 345c f33e af10 6e3f 5cb8 a93e
00000050: 3e75 853f 6768 3a3f 2fdc 6e3f d4e7 0c3f
00000060: 6b3f 883e cb89 523f d8bf 123f 7e32 263f
00000070: 16d2 2b3f aff0 053f 02ff 3f3f 3691 153f
00000080: 3568 6c3f 52d5 2d3f f65e 1e3f 7cca 253f
00000090: c819 4b3f ad73 f63e eac0 0b3f 088b 173f
000000a0: 931e 003f 342f 693f af96 343f c278 6f3f
000000b0: 7724 cd3e 6410 853f 67c4 c43e d9db b23e
000000c0: f284 5b3f fa40 f03e d6c1 663f 1048 323f
000000d0: fa00 143f 11a9 143e 54ae c83e daef 8a3f
000000e0: 31cc 453f 9669 813f ab22 883f 9a1e 863f
000000f0: 34bc 123f 5f6b a73f 4d36 613f 96a8 f93e
0.4601392 0.46034944 0.7726755 0.67955416 1.151156 0.44608265 0.54148626 0.7504656
0.59855235 0.3376247 1.0145962 0.7277849 0.41420063 1.0921438 0.7842785 0.6531794
0.85384 0.47531283 0.9299421 0.33148468 1.0426404 0.72815555 0.93304724 0.5504124
0.26610884 0.82241505 0.5732398 0.64920795 0.6711744 0.5232038 0.74998486 0.584247
0.9234651 0.67903626 0.6186365 0.6476209 0.79336214 0.4813513 0.5459124 0.5919652
0.5004665 0.9108765 0.70542425 0.93543637 0.40066883 1.0395627 0.38431093 0.34933355
0.85749733 0.46924573 0.9013952 0.6964121 0.5781399 0.14517619 0.39195502 1.0854447
0.77264696 1.0110347 1.063558 1.0478089 0.57318425 1.3079642 0.8797348 0.48761433

batch_normalization_5/batchnorm/mul f4 [128]
00000000: 5eb7 fc3c 65d2 703d cce8 013d ec3e 363d
00000010: 6ac2 f43d 7594 7f3d c0d1 233d ffaa 3e3d
00000020: bc93 763d 54d8 303d 5c15 4b3d e774 223d
00000030: 2cba 123d bf8f 1f3d 271f 323d faa9 6c3d
00000040: 52c5 9c3d 68fe df3c da0b 623d 8f31 f33c
00000050: 09f3 003d dc86 f03c 665b 8f3c ef42 1b3d
00000060: 460b 233d dab7 e53c dbc4 4b3d 8379 a53d
00000070: e90d 233d cd68 e83c 5ec6 f83c 1f40 423d
00000080: 546f ad3d 7676 073d 0fd2 8d3d 2c48 343d
00000090: 835a 233d 1212 203d d086 6f3d 275d 2d3d
000000a0: 0864 e43c c472 bf3c 11ec bb3c 4c37 193d
000000b0: 2b0b 1b3d 2c49 e43c bf3d 1b3d ae82 8a3d
000000c0: ac46 473d f36f 3d3d 2676 3d40 0f58 c93d
000000d0: ae7d 223d 54a5 013d 7e92 3a3d 9a29 c93c
000000e0: 0896 113d ebc1 2e3d d56f 523d 7797 ef3c
000000f0: bd0c 0a3d 2c79 3e3d 7e73 e03c 750b 173d
00000100: 252a 083d 3c82 213d b5ff f53c 895b 083d
00000110: eb5c f43c d273 2f3d a21b 0b3e b656 ea3c
00000120: 30c0 923c 1367 173d e262 363d 36c9 743d
00000130: 7eab f83c 11be f03c 028a 6b3d 3b11 2c3d
00000140: b301 e43c 0fd4 533d 1ee2 243d fb84 0e3d
00000150: 1785 0f3d 9dc9 083d 0552 253d c442 4a3d
00000160: be7d 053d c357 4e3d 9de5 a93d 0c09 5e3d
00000170: b462 af3c 0c04 1a3d 711f d43f 45b9 423d
00000180: da90 453d 1eca 4e3d 83d8 d13c 5f51 eb3e
00000190: 564f a63c f88c 0c3d 16ae 3a3d 4bcf 163d
000001a0: 0bb6 3e3d a141 2b3d 1283 593d 9632 d43c
000001b0: 1f9d bc3c 9cd2 3c3d 84a3 2a3d c67b 0a3d
000001c0: 577d 033d a25b 583d 7819 623d 5560 d63c
000001d0: e684 263d d30d 1d3d 2c79 263d 47f1 283d
000001e0: b387 6e3d ba79 393d 2061 ec3c 90d1 483d
000001f0: 8249 2a3d fb36 213d 3e0f 133d b3ac b13c
0.030849155 0.058794398 0.031716153 0.0444936 0.11951144 0.06239744 0.039994955 0.046549793
0.060199484 0.043175057 0.049580917 0.039662268 0.03582208 0.038955446 0.04348674 0.05777929
0.07654823 0.02734299 0.055187084 0.029686717 0.031481776 0.029361181 0.017499637 0.03790563
0.039805673 0.028041769 0.049748283 0.08079817 0.039808188 0.028370285 0.030368026 0.047424432
0.084685 0.033071958 0.06924831 0.04401414 0.03988124 0.039079733 0.058478177 0.042325165
0.02787973 0.023370154 0.022939714 0.03740625 0.037852447 0.027866922 0.037900683 0.067632064
0.048651382 0.04624934 2.9603362 0.09831249 0.03967064 0.03165181 0.045549862 0.02455597
0.03554347 0.042665403 0.051376183 0.029247029 0.033703554 0.046502277 0.027398821 0.03687616
0.033243317 0.03943084 0.030029157 0.03329042 0.029829463 0.042835064 0.1358476 0.0286058
0.017913908 0.036963534 0.044527896 0.059762202 0.030355211 0.029387506 0.05750466 0.04200862
0.027832842 0.051715907 0.040254705 0.03479479 0.035039034 0.0333954 0.040361423 0.04938008
0.03259062 0.050376665 0.082957484 0.054207847 0.02140937 0.037601516 1.6572095 0.047539968
0.048233844 0.050485723 0.025615936 0.4596052 0.020301502 0.034314126 0.045576178 0.036818784
0.04656033 0.041810635 0.053103514 0.025903028 0.02302414 0.04609929 0.041659847 0.033809446
0.032101955 0.052821763 0.05520007 0.026168982 0.040654086 0.038343262 0.040642902 0.041245725
0.05823488 0.045282103 0.028854907 0.04902798 0.04157401 0.039359074 0.035903208 0.021688795

batch_normalization_5/batchnorm/sub f4 [128]
00000000: d16e 09bf 3a52 02be 3014 1ebf fcea 943e
00000010: a86d 27bd 20e5 2cbe 450f 45bf eeeb 8abe
00000020: c08a 09be 54ae 90bd 6ac5 75bf cfe9 4dbf
00000030: 2c39 3bbd d2ce 89be fa61 18bf 58c2 0cbf
00000040: bfb7 61be 51a5 77bf da66 c8be 21da 14bf
00000050: e20e 87bf 389e 3bbf b278 8bbe 740f 8fbf
00000060: a014 a1be 6056 adbc d80c a7be fa3a 37bf
00000070: dd0c 08bf 5069 23bf 8603 30bf b640 84be
00000080: 982e a7be d043 99be 18e1 2ebf b092 89be
00000090: b229 0fbe 5557 42bf 37a4 4ebf 9b82 77bf
000000a0: 4fc9 3abf ac3f 8bbf 4938 a4bf 00cf 0ebf
000000b0: 350a 85bf ac0e 133e 04fd 993d 9461 dbbd
000000c0: b29d 85be c008 58bf 106e e73e 5c2d 1cbf
000000d0: fb97 31bf 843f 0dbf f515 a2be c76e 94bf
000000e0: 9761 73bf a531 c1be 2f37 49bf b48b 9dbf
000000f0: 95a6 1ebf 5e30 85be a624 d7bf f63b b6be
00000100: 401d 0ebf 60e6 87be 53d9 76bf 812a 21bf
00000110: 9413 69bf b09c d2be a8b4 28bf e615 a7bf
00000120: c81c 92be 90b6 c0bf 7b62 2cbf 4874 66be
00000130: dade 84bf fee1 15bf 308e 5cbc 7062 81bf
00000140: 8b35 2bbf 31bf 14bf 1eab 11be ba75 46bf
00000150: 8efd 69bf 3e74 36bf ad9f 8dbf 58df 29bd
00000160: 1e56 68bf 63f7 65bf e274 02be 4129 27be
00000170: 656a a0bf 9649 1fbf 14d1 7dbe 7827 b7be
00000180: d6df 8dbf 89d2 d3be b7ae 00bf 92ab 09bf
00000190: 9141 653e b7a0 74bf 3337 80bf e26b f2be
000001a0: 708c 2abe 5eda 75bf 64a1 04be 9d9f dcbf
000001b0: 6a52 b5bf 14dc 3ebf 600f 58be 531d febe
000001c0: 4053 8cbf 2090 4f3e ce96 96be 54a2 14be
000001d0: 97bb 70be 6e0d 31be 7481 3fbf 5c8f a7be
000001e0: 88f4 49bd b815 48bf 229c 97bf 5efd a0be
000001f0: 2d3d 80bf 5b29 31bf 0db9 08bf c0e2 4ebf
-0.5368472 -0.1272668 -0.61749554 0.2908553 -0.04087606 -0.16884279 -0.76976424 -0.27133125
-0.13431835 -0.070645005 -0.96004355 -0.8043489 -0.04570882 -0.26915604 -0.595245 -0.54984045
-0.2204275 -0.9673663 -0.3914097 -0.5814534 -1.0551417 -0.732883 -0.2724052 -1.1176591
-0.31461048 -0.02115935 -0.32626987 -0.71574366 -0.5314463 -0.6383257 -0.68755376 -0.2583062
-0.32652736 -0.2993455 -0.68312216 -0.26869726 -0.13980749 -0.7591451 -0.8071932 -0.96683663
-0.7296342 -1.0878806 -1.2829677 -0.55784607 -1.039374 0.14361066 0.07518962 -0.10711971
-0.26096874 -0.8438835 0.4520116 -0.6100671 -0.6937253 -0.5517504 -0.31657377 -1.1596307
-0.95070785 -0.37733188 -0.7859983 -1.2308259 -0.61972934 -0.26013464 -1.6808059 -0.35592622
-0.5551338 -0.2654295 -0.9642536 -0.6295548 -0.910455 -0.41135168 -0.6590066 -1.3053558
-0.28537583 -1.5055714 -0.6733777 -0.22505295 -1.0380509 -0.5854796 -0.0134616345 -1.0108166
-0.66878575 -0.58104235 -0.14225432 -0.77523386 -0.9140252 -0.7127112 -1.1064354 -0.041472763
-0.90756404 -0.8983061 -0.127399 -0.16324331 -1.2532469 -0.6222166 -0.24786788 -0.357723
-1.1083934 -0.41371563 -0.50266594 -0.5377742 0.22388293 -0.9555773 -1.0016845 -0.47347933
-0.16655135 -0.96036327 -0.1295219 -1.723621 -1.4165776 -0.7455456 -0.21099615 -0.49631748
-1.0962906 0.20269823 -0.2941193 -0.14515048 -0.2350906 -0.1729028 -0.74806905 -0.32726562
-0.04930547 -0.7815814 -1.1844523 -0.31443304 -1.0018669 -0.6920373 -0.53407365 -0.80814743

batch_normalization_6/batchnorm/mul f4 [128]
00000000: 30a0 4a3e e5b9 773e 80cc 893e 61c7 3f3d
00000010: 11a7 d63d 6cf5 6b3e 28bc a33d 0553 5c3e
00000020: 5e5c 3b3e 7b17 a23d febe 723e b2f3 903d
00000030: 0118 1f3e a7d5 da3d 6dc4 923e 7490 9b3d
00000040: 6671 863e 43c4 b73d e295 4e3e 5fbe a53d
00000050: 7271 ad3d 5bc6 b83d 3c28 e43e 0c6a 3c3e
00000060: 13e2 ae3d 21e7 a83e f719 cb3d e094 923e
00000070: a6f0 8e3c 503a 433e b9f2 a83d a3e3 7d3e
00000080: 9a88 bc3d 8b5f 653e b769 ae3e d941 623e
00000090: 4482 d33d bc26 683d 7d0c 643e 169e 6f3e
000000a0: 77e2 893e 462b ee3e 9037 bb3d 8eb9 883e
000000b0: dc6b 9b3d 2628 323d 66b1 963d 60b2 be3d
000000c0: 8c06 9d3d be62 4d3e 4171 ca3d 794e b43d
000000d0: 4174 823e 1eca 9b3e d8c0 353e 5a57 d93d
000000e0: 8a1d 883d a57c 993d 2027 a33d 3918 9c3d
000000f0: 73e5 8c3e 9516 d63d eb17 da3d c04e 7e3e
00000100: dfa2 6a3e 2d8b 523e 859a a53d 01f6 4c3e
00000110: ad69 263d bf7e 813e 92da e83d 40a0 b33d
00000120: ef1e e13e a47b 813e 2d79 913d b84a 6a3e
00000130: 8cca 503e c04b cb3d de18 8e3e 53c9 bd3e
00000140: 1793 e33d b472 2c3d 7fa7 593e 29c7 8a3e
00000150: 5545 c83e 764d ad3d 515f 8f3e b271 f73d
00000160: e0e5 803e 5c3d 863e 6254 aa3d 5531 373e
00000170: b96b a53d 620f 013f 20b1 073f 505f 9a3d
00000180: efb7 4c3e 7623 bc3e 423a ff3e c870 513d
00000190: c9c6 993e 8e22 9b3e 9b55 7a3e 3cab c43d
000001a0: 3d81 653e f29a 6a3e f0ab b33d 657a a73e
000001b0: 3b4e 423d 148a 733e e475 883e 7a44 be3d
000001c0: 9b07 7c3e 3d25 a53e 4c52 a43e 1056 c33d
000001d0: 901b aa3d 7592 593e 0ee6 a03e f8fb c53d
000001e0: 952e 7c3e d884 553e 0753 3b3e a4e9 5a3e
000001f0: dbbb 8f3d a4c8 713d 19bd c13d 050f 943d
0.19787669 0.24192007 0.26913834 0.046821002 0.10481084 0.2304284 0.07994872 0.21516044
0.18296954 0.07914635 0.2370567 0.07077731 0.155365 0.10685282 0.28665486 0.075959116
0.2625839 0.08972981 0.20174363 0.08092951 0.084689036 0.09022208 0.44561946 0.18399829
0.08539214 0.32988837 0.09917062 0.28629208 0.017448734 0.19065213 0.08249421 0.24793868
0.09205742 0.22399728 0.3406503 0.22095431 0.103275806 0.056677565 0.22270389 0.23400149
0.2693059 0.4651739 0.09141457 0.26704067 0.07588932 0.04349532 0.07358055 0.09311366
0.07667264 0.20057198 0.09884883 0.0880403 0.2547932 0.3042764 0.17749345 0.10612364
0.06646259 0.07494477 0.07966447 0.076218076 0.27518806 0.10453526 0.10649093 0.24834728
0.22913693 0.20560904 0.08086113 0.20015718 0.040628124 0.25292012 0.11369814 0.087708
0.43968913 0.25289643 0.071031906 0.22880065 0.20389766 0.099265575 0.27753347 0.3706766
0.111120395 0.042101577 0.21255301 0.27105072 0.39115396 0.0846204 0.28002408 0.120822325
0.2517538 0.26218688 0.08316876 0.17889912 0.08077187 0.504141 0.53004646 0.07537711
0.1999204 0.36745805 0.49849135 0.051132947 0.30034474 0.302998 0.24446718 0.09602973
0.22412582 0.2291067 0.08773029 0.32710567 0.047437888 0.23783141 0.26652443 0.092904046
0.24612276 0.32254973 0.32094038 0.095378995 0.083060384 0.21247275 0.31425518 0.096672
0.24627145 0.20851457 0.18293391 0.2137819 0.070182525 0.059029236 0.09459896 0.07229427

batch_normalization_6/batchnorm/sub f4 [128]
00000000: 0069 53be 3a6c 64be 809e 64bd e37b ccbe
00000010: 4462 51bf 8465 3ebe e65a 42bf aedd 34be
00000020: d5b5 89be 2759 0ebf c062 e1bd 7535 f5be
00000030: c044 d7bd 502c 33bf 0064 063b a576 1cbf
00000040: 6804 6ebe e386 3dbf f0c6 88bd 6e1a 0bbf
00000050: dbae 38bf cc20 2bbf c053 833c 58b1 37be
00000060: 3251 38bf d8f2 d5bd f0d4 34bf 8090 5abc
00000070: 58bc abbe 04d6 35be 1c91 31bf 8811 5cbe
00000080: 0b9c 31bf e695 58be 00c1 35bb 5802 36be
00000090: 3abc 37bf 9ac9 bfbe 3ef0 81be ab88 9dbe
000000a0: fcc9 9ebe 808f aabc 3bc3 2bbf b485 8ebe
000000b0: 125d 34bf 279c 99be 688d 08bf 5706 47bf
000000c0: ca06 20bf b43b 83be ceec 12bf c350 41bf
000000d0: a029 a4bd d811 1bbe 0f4e 5ebe 0725 49bf
000000e0: b6cf 0dbf 77bf ddbe 30b6 1cbf 220e 04bf
000000f0: a8a0 62be 3c70 5ebf b5cb 73bf c030 56be
00000100: 3048 e5bd 3c61 4fbe 5d3a 2fbf f161 73be
00000110: a395 c1be 6ef7 75be a245 31bf b4ca 23bf
00000120: e0be c1bc 2c4d b9bd 54f9 20bf 9842 8bbe
00000130: 24f0 74be 62a3 3bbf 5c66 60be d000 50bd
00000140: 6b3a 6bbf 180d 92be 0eaa 25be 1058 a6bd
00000150: a0d4 24bd 10c2 32bf bcdd 25be 4e1c 80bf
00000160: a05a 3ebe 0406 7cbe a9fe 36bf c45a 43be
00000170: c8d1 39bf 001c 8eba 40fe 34bc d61b 22bf
00000180: 6d3e a5be 8036 abbc 50bf 13bd ca7c 0ebf
00000190: 8031 a5bc 201b d6bd 1095 41be debb 2ebf
000001a0: 4ed1 c8be 5a4f abbe f2e0 13bf 00a4 87bd
000001b0: af91 f1be e879 81bd f0f0 c8bd 3e6b 50bf
000001c0: 50fc 87bd 70ae 72bd 80d8 7dbc 167c 66bf
000001d0: 3848 24bf 0c7e 08be 407f b7bd 9a30 42bf
000001e0: 6090 03bd 40f6 32be a4aa 96be c2f7 53be
000001f0: 9ac8 00bf fd0c acbe 4d59 35bf ae2e 19bf
-0.20645523 -0.2230691 -0.05581522 -0.39938268 -0.81790566 -0.18593413 -0.7591995 -0.17662689
-0.2689654 -0.55604786 -0.11005163 -0.47892347 -0.1051116 -0.6998949 0.0020506382 -0.6111854
-0.23243868 -0.74033946 -0.06678569 -0.54337204 -0.7214181 -0.6684692 0.016031146 -0.17938745
-0.71998894 -0.104467094 -0.70637417 -0.013340116 -0.33542132 -0.17757422 -0.69362044 -0.21491063
-0.6937873 -0.21150932 -0.0027733445 -0.17774332 -0.71771586 -0.37458497 -0.25378603 -0.30768332
-0.31013477 -0.02082038 -0.67094773 -0.27836382 -0.70454514 -0.30001947 -0.5334077 -0.7774405
-0.6251036 -0.25631487 -0.57392585 -0.7551386 -0.08015752 -0.15143526 -0.21709464 -0.78572124
-0.55395067 -0.4331014 -0.61215496 -0.51584065 -0.22131598 -0.86890006 -0.9523271 -0.20917034
-0.11195409 -0.20251936 -0.6844843 -0.2376783 -0.37809476 -0.24020168 -0.69246876 -0.63981175
-0.023650587 -0.090479225 -0.62880445 -0.27199244 -0.23919731 -0.7329618 -0.21914047 -0.050782025
-0.91886014 -0.28525615 -0.16178152 -0.08122265 -0.040241838 -0.69827366 -0.16197866 -1.0008638
-0.18589258 -0.2461167 -0.7148233 -0.19077593 -0.72585726 -0.0010842085 -0.011046946 -0.63323724
-0.3227419 -0.020900011 -0.03607112 -0.55659163 -0.020165205 -0.104543924 -0.18904519 -0.6825541
-0.39222187 -0.33458978 -0.57765114 -0.066230774 -0.4718146 -0.0632208 -0.0981158 -0.8141364
-0.06639922 -0.059248388 -0.015493512 -0.9003309 -0.641727 -0.13329333 -0.08959818 -0.7585541
-0.03212011 -0.1747675 -0.29427063 -0.20699981 -0.50306094 -0.3360366 -0.7083939 -0.5983685

conv2d/Conv2D_bias f4 [16]
00000000: 3298 a13e ca54 adbf 29a4 8abd 0863 0cbf
00000010: 9735 ebbf 67e8 b6be a2cb cf3e 87f4 293e
00000020: 55fc 5cbf 26bd ce3e e529 21be 692f ddbd
00000030: d569 f53d a55e c33e c87f e6be ac3c cfbd
0.31561428 -1.35415 -0.06769592 -0.5483861 -1.8375729 -0.35724184 0.40585047 0.16597186
-0.8632253 0.40378684 -0.15738638 -0.108000584 0.119830765 0.38158146 -0.45019364 -0.10118994

conv2d/kernel f4 [1, 4, 4, 16]
00000000: 18d9 3e3e 7eba 7a3e 9358 b93e 2c96 953d
00000010: c2f6 89bd 6822 b4bc 0147 2cbf 1767 1f3e
00000020: f58b ba3e d297 8fbe 3a1b 623e a0d0 8cbe
00000030: 9d75 8bbd 9b8c 96be 77f8 76be d553 d93e
00000040: b7da e23c 8fc5 553d 2745 323e 6465 98bd
00000050: c7e8 8e3d d9f5 b23e 23a1 90be 5b7d 41be
00000060: 2e17 fc3e 90e7 6abd 754f be3c 8365 a5bd
00000070: 723e 21be 994c 84be bef8 a03e 88ef a13e
00000080: 4e3f 45be 6313 aa3d 8400 393e 4ea9 7cbe
00000090: bb4c 8e3d 1cdf 563e e14d 1abe 2a59 0abe
000000a0: 0a78 b43e 7b6c 793e 89e4 793d ac5b 5dbe
000000b0: 90c5 1abd db8d 5dbe d1bd 3e3e 4dc4 b13e
000000c0: f937 b0be 6814 e6bd 7dc8 48bd 9800 013e
000000d0: e104 debb 9533 a5be 3942 b33d 819b bf3e
000000e0: 4c9a 083e 5810 af3e ac38 593e 8071 94be
000000f0: a999 173d 32e6 f5bd 42b2 193e 0f96 733e
00000100: be4f a33e 9ecf 503e e3a8 7a3e 2d02 7ebe
00000110: 74d8 43bc c4d7 debd b28f 56be 3150 823e
00000120: 4c2c 023e 2685 82be 6057 773e e5cb b33d
00000130: 855e cc3d caa2 d4bd 931d 88be d772 babd
00000140: 9db1 973d fe54 563e 8d2e ebbc b19a 9dbe
00000150: 0fbf 8b3d 44e8 cd3e 1827 b7bd 950c 0cbe
00000160: 9fe0 193e b72d 0dbe ccf6 483e 3719 293e
00000170: 8bf0 293e 9d7a 42be b6b5 6c3e 2994 b73d
00000180: 4770 7ebe 6873 563e e3f9 393e e4fd 87be
00000190: 109a ad3d ea25 2e3e 21e4 413d 1e8f e3bd
000001a0: 99cf 193e deeb 9cba 74d8 8b3e 4200 8f3e
000001b0: b954 a63e f803 34be e211 933b 8671 b4bc
000001c0: d5dc e0bd bc30 5fbd 0137 2bbe d827 863d
000001d0: 8875 5f3c ba61 5dbd 55f8 803e 9920 193e
000001e0: cefe 34bc 8508 c83e ca9b 783e 7d21 5f3e
000001f0: d3ac 153f a11a ca3d 156d 023e c4ce a73c
00000200: d0b4 533e 8ae3 2c3e 2d72 9dbb fdf1 02be
00000210: 131d 8c3c b3a3 66be eec5 2dbd 7836 033e
00000220: c98c 50bd 05ee a0bd f986 8dbd 0e10 d2bd
00000230: 1d9a f0bb 235d 383d 63ec 3abe 3fa8 00be
00000240: a128 0c3e 67b8 993e a25f 893a b060 98bd
00000250: 0493 563d de8f 8e3e 49d2 7b3a 92cc 10be
00000260: 437e af3c c5cd 70be 1282 f93a a18d 643e
00000270: 8728 75be 9a87 2ebe 9ace 2d3e f6af 41be
00000280: 8732 81be e2a7 973d 5e34 34be cf30 62be
00000290: e545 b93c 8dd9 413e dfc5 f4bd 3a4a 42bc
000002a0: d55b 523d 65f8 cabd 3f7d 9bbd 2fa8 8b3e
000002b0: eb1c 9dbd 1802 3c3d 9716 11bd bd34 2abe
000002c0: c4c9 c0bc 6557 96bd e5f3 bbbe 5472 9b3e
000002d0: d220 1abd 3592 7dbe 6e22 603e 60a3 123e
000002e0: 8540 85be de22 243e 65b5 5cbe 2e0d f23d
000002f0: 896b 093e a2fb 603e 65b4 233e cac4 84bd
00000300: 4f71 b33e f4d1 d63d 14c4 313e a1d7 0bbe
00000310: f93f 60bd f3b8 e3bc aa42 3e3e 5764 a33e
00000320: 1078 1939 8d3d e7bd d96b 93be 404b 76be
00000330: 8d56 6bbd 2717 873e 48d8 62be 654d 49be
00000340: 59ac 733e b7ad 93bc 754d 9ebd 4b4b 8bbe
00000350: 4c45 a23d 961a 713e 2d0b f33d 0720 d8bd
00000360: dcaa 09bd 4037 00be c69b 7cbe 38c5 0c3d
00000370: 2e24 9fbe 2694 dc3d a0c1 743d 3159 7abe
00000380: 0251 3ebe 7d7c c33d 9591 86be d46c 6dbe
00000390: 38fa e63d a1ed 653e 44cc c93d bab7 65be
000003a0: f415 383d 3509 7abd db36 82be 2a93 a9bd
000003b0: 773c 37be 2375 e23d 027e 0c3e 204a 24be
000003c0: 9db1 89bd d107 94be effb d9be 1f18 553e
000003d0: cc0b 673d 6b6a 0bbe ec8d 5b3e 1f3c be3e
000003e0: 0d8c 70be 8a57 7e3e 9f86 c1be 8701 98bc
000003f0: c541 dd3d 7ee1 d43e 24bf 073d b592 5ebe
0.18637502 0.24485204 0.3620039 0.07304034 -0.067365184 -0.021989062 -0.67295843 0.1556667
0.36434904 -0.28045517 0.22080699 -0.27502918 -0.06809542 -0.29404148 -0.2411822 0.4244677
0.027692182 0.05219036 0.17409192 -0.07441214 0.069779925 0.34953192 -0.28247938 -0.18895476
0.49236435 -0.05734974 0.023231247 -0.080760024 -0.15746477 -0.2583969 0.31439775 0.3162806
-0.1926243 0.08304479 0.18066603 -0.2467396 0.06948229 0.20983547 -0.15068771 -0.13510576
0.35247833 0.24357788 0.061008964 -0.21617001 -0.037786067 -0.21636145 0.18627097 0.34720078
-0.34417704 -0.11234361 -0.049019326 0.12597883 -0.006775484 -0.32265916 0.08752865 0.37423328
0.1334011 0.34192157 0.21213025 -0.28992844 0.037011776 -0.12006797 0.15009406 0.23787712
0.31896776 0.203917 0.24478488 -0.24805517 -0.011953462 -0.10880998 -0.20953253 0.25451806
0.1271221 -0.2549221 0.24154425 0.08779124 0.09978966 -0.10382612 -0.26585063 -0.09103935
0.07406924 0.2093086 -0.02870872 -0.30782083 0.06823551 0.40216267 -0.089430034 -0.13676675
0.15027092 -0.1378697 0.19625396 0.16513525 0.16595666 -0.18992086 0.23116192 0.08963806
-0.24847518 0.20942461 0.1816173 -0.2656089 0.08476651 0.1700665 0.0473367 -0.11111282
0.15020598 -0.0011972149 0.27313578 0.27929884 0.32486513 -0.17579639 0.004488216 -0.022026788
-0.1097962 -0.054489836 -0.16720201 0.06550568 0.0136388615 -0.054048277 0.25189462 0.14953841
-0.011047078 0.39069 0.24278179 0.21790119 0.58466834 0.0986836 0.12736924 0.020484336
0.20674443 0.16883674 -0.0048048706 -0.12787624 0.017103707 -0.22523384 -0.04242509 0.12813747
-0.050915513 -0.078578986 -0.069105096 -0.102569684 -0.0073425905 0.045010697 -0.18254237 -0.12564181
0.13687374 0.300235 0.0010480771 -0.07440317 0.0523863 0.27844137 0.0009606225 -0.14140537
0.021422511 -0.23515995 0.0019035956 0.22319652 -0.23941241 -0.17043915 0.16973343 -0.1891478
-0.25233862 0.07405068 -0.17598101 -0.22088932 0.022616336 0.18930645 -0.119518034 -0.011858517
0.05135711 -0.09910659 -0.07592248 0.2727675 -0.07671531 0.045900434 -0.035421934 -0.1662168
-0.02353371 -0.07340888 -0.36709514 0.30360663 -0.037628956 -0.24762805 0.21888134 0.14320135
-0.26025787 0.16028926 -0.21553572 0.1181892 0.13419928 0.2197099 0.15986784 -0.06482847
0.35047385 0.10489264 0.17359954 -0.13656475 -0.05474851 -0.027798152 0.18580118 0.3191249
0.00014635944 -0.11291037 -0.2879322 -0.24052143 -0.057455588 0.2638485 -0.22152817 -0.1965843
0.23796214 -0.01802717 -0.077296175 -0.2720588 0.079233736 0.23545298 0.11867366 -0.10552984
-0.03361021 -0.12521076 -0.24668798 0.03436777 -0.3108229 0.107704446 0.059754968 -0.24448086
-0.1858559 0.09545229 -0.26282945 -0.23186046 0.11278194 0.2245393 0.09853414 -0.22433367
0.04494281 -0.061043937 -0.25432476 -0.082800224 -0.1789416 0.11057498 0.13719943 -0.16043901
-0.0672333 -0.28912213 -0.42575023 0.20809983 0.056407735 -0.13614814 0.21440858 0.37155244
-0.23490925 0.24838081 -0.3779802 -0.018555416 0.1080356 0.41578287 0.03314127 -0.21735652

conv2d_1/Conv2D_bias f4 [32]
00000000: 52d4 d03c 55e3 b43e d4ed f9bd e0f9 5cbe
00000010: abc5 63bd 17be ddbb 2077 09be b512 fcbd
00000020: e170 213e 6827 32be 6b88 1ebf 37db c4be
00000030: 262d 98be 3c82 c3bd 78cd 7cbd 0946 88be
00000040: e0bb b03e e031 24be c443 533e 1415 883e
00000050: bce9 e1be ba86 a33e 8168 6ebe 1679 813d
00000060: a7c1 cb3d cc7c a8be 1450 873b d7fc a53d
00000070: 51ad e33e 7c88 403d b6c9 603e 526a e5be
0.025491867 0.3532969 -0.12203565 -0.21579695 -0.055608433 -0.0067670452 -0.13424349 -0.123082556
0.15765716 -0.17397845 -0.6192691 -0.38448498 -0.29721946 -0.095463246 -0.061719388 -0.26615933
0.34518337 -0.16034651 0.2063132 0.2657858 -0.44123638 0.31938726 -0.23282053 0.063219234
0.09949046 -0.32907712 0.004129419 0.08104866 0.44468167 0.04700516 0.21951947 -0.44807678

conv2d_1/kernel i1 [32, 4, 4, 16] scale=0.008126796 zero_point=0
00000000: 0f18 00fb 2014 fd41 0b26 0512 3d0e 0e07
00000010: 2e22 effb 222e e8f9 1b20 0645 1ee4 44ff
00000020: e711 ebdf f80b d411 fcef 0c04 12c8 fd11
00000030: 0cf4 f3e3 08ff db02 edfe f90e ebcc 0efa
00000040: 13f9 fb05 0a00 001b 020a ceee 2b1a f3e3
00000050: 241a f605 130f 030b 0d02 f21f 1414 23e5
00000060: de0b ebeb ffeb f80f f6e2 e9e5 fa03 dee2
00000070: ee0b f0f3 08ff 01f6 e404 e7ed f505 f6dc
00000080: 10fd 1918 f5fb f005 ed10 1ce7 07eb f914
00000090: 1b08 1f19 f803 ffe9 f8f3 220e f2e6 1326
000000a0: c201 181a f0e0 f9ff fbea 25f3 f2d3 db3a
000000b0: e6fb 040f 02ed f002 f70d 35e4 00d4 112a
000000c0: 1dfe 1924 e5e3 0200 ea02 10c5 f220 deff
000000d0: 26e0 162c ebe6 1fe3 f40a 0810 f612 0905
000000e0: cae7 1220 05ea 1fec e3ff fce9 ef1b f2f7
000000f0: f500 0a23 0ff5 2315 f427 09fd 0d15 f717
0.121901944 0.19504312 0.0 -0.04063398 0.26005748 0.16253592 -0.02438039 0.52824175
0.089394756 0.30881825 0.04063398 0.14628233 0.49573457 0.11377515 0.11377515 0.056887574
0.3738326 0.27631107 -0.13815553 -0.04063398 0.27631107 0.3738326 -0.19504312 -0.056887574
0.2194235 0.26005748 0.04876078 0.56074893 0.24380389 -0.2275503 0.55262214 -0.008126796
-0.20316991 0.13815553 -0.17066272 -0.26818427 -0.06501437 0.089394756 -0.35757902 0.13815553
-0.032507185 -0.13815553 0.09752156 0.032507185 0.14628233 -0.4551006 -0.02438039 0.13815553
0.09752156 -0.09752156 -0.10564835 -0.2356771 0.06501437 -0.008126796 -0.30069146 0.016253592
-0.15440913 -0.016253592 -0.056887574 0.11377515 -0.17066272 -0.4225934 0.11377515 -0.04876078
0.15440913 -0.056887574 -0.04063398 0.04063398 0.08126796 0.0 0.0 0.2194235
0.016253592 0.08126796 -0.40633982 -0.14628233 0.34945223 0.2112967 -0.10564835 -0.2356771
0.29256466 0.2112967 -0.08126796 0.04063398 0.15440913 0.121901944 0.02438039 0.089394756
0.10564835 0.016253592 -0.11377515 0.25193068 0.16253592 0.16253592 0.28443787 -0.2194235
-0.27631107 0.089394756 -0.17066272 -0.17066272 -0.008126796 -0.17066272 -0.06501437 0.121901944
-0.08126796 -0.24380389 -0.1869163 -0.2194235 -0.04876078 0.02438039 -0.27631107 -0.24380389
-0.14628233 0.089394756 -0.13002874 -0.10564835 0.06501437 -0.008126796 0.008126796 -0.08126796
-0.2275503 0.032507185 -0.20316991 -0.15440913 -0.089394756 0.04063398 -0.08126796 -0.29256466
0.13002874 -0.02438039 0.20316991 0.19504312 -0.089394756 -0.04063398 -0.13002874 0.04063398
-0.15440913 0.13002874 0.2275503 -0.20316991 0.056887574 -0.17066272 -0.056887574 0.16253592
0.2194235 0.06501437 0.25193068 0.20316991 -0.06501437 0.02438039 -0.008126796 -0.1869163
-0.06501437 -0.10564835 0.27631107 0.11377515 -0.11377515 -0.2112967 0.15440913 0.30881825
-0.50386137 0.008126796 0.19504312 0.2112967 -0.13002874 -0.26005748 -0.056887574 -0.008126796
-0.04063398 -0.17878951 0.30069146 -0.10564835 -0.11377515 -0.36570582 -0.30069146 0.4713542
-0.2112967 -0.04063398 0.032507185 0.121901944 0.016253592 -0.15440913 -0.13002874 0.016253592
-0.073141165 0.10564835 0.4307202 -0.2275503 0.0 -0.35757902 0.13815553 0.34132543
0.2356771 -0.016253592 0.20316991 0.29256466 -0.2194235 -0.2356771 0.016253592 0.0
-0.17878951 0.016253592 0.13002874 -0.47948098 -0.11377515 0.26005748 -0.27631107 -0.008126796
0.30881825 -0.26005748 0.17878951 0.35757902 -0.17066272 -0.2112967 0.25193068 -0.2356771
-0.09752156 0.08126796 0.06501437 0.13002874 -0.08126796 0.14628233 0.073141165 0.04063398
-0.438847 -0.20316991 0.14628233 0.26005748 0.04063398 -0.17878951 0.25193068 -0.16253592
-0.2356771 -0.008126796 -0.032507185 -0.1869163 -0.13815553 0.2194235 -0.11377515 -0.073141165
-0.089394756 0.0 0.08126796 0.28443787 0.121901944 -0.089394756 0.28443787 0.17066272
-0.09752156 0.31694505 0.073141165 -0.02438039 0.10564835 0.17066272 -0.073141165 0.1869163

conv2d_2/Conv2D_bias f4 [32]
00000000: 236a 49bd 0eb3 4bbf b048 8ebe 3457 dcbe
00000010: 17c9 36be 9c45 99be c01e 20be 75c9 873e
00000020: 99ee 0dbd 26a7 c5be 7626 87bd e8e3 bfbe
00000030: b3ea 04bd ed99 c2be 82f4 3ebe 8e26 0cbf
00000040: a8c5 80be aaca 27bf ae38 f5bd 73b2 87be
00000050: 4107 02bd 4937 c3be ab74 6fbd cc4c bbbe
00000060: 5102 c1bd 25ca 83be 13ec debd 70fd a6be
00000070: c27e 02bf afd9 9fbe 7a6c 29be fe27 163e
-0.049173485 -0.7957009 -0.2778983 -0.4303528 -0.17850147 -0.2993592 -0.1563673 0.26520887
-0.034651373 -0.38604087 -0.06599133 -0.37478566 -0.03245039 -0.3800806 -0.1864796 -0.5474633
-0.251508 -0.65543616 -0.119737014 -0.26503333 -0.0317452 -0.38128117 -0.058460873 -0.3658203
-0.0942427 -0.25740162 -0.10884871 -0.32615232 -0.5097467 -0.31220767 -0.16545287 0.14663693

conv2d_2/kernel i1 [32, 4, 4, 32] scale=0.006951765 zero_point=0
00000000: 13f1 b6e9 e208 22b4 0b0d e4f6 f518 f3df
00000010: f5ce 0df9 c909 0a21 10d7 d1fa 1d0c efc2
00000020: f7d7 a30d e018 10ee effd fbfb c121 e4d6
00000030: ecc4 12dd 0511 08f9 ecda c1f9 ef1c f5bf
00000040: 0af9 c7f8 fcf0 21d2 0fe7 04f7 cf0b b6d5
00000050: f6f6 04d5 f217 d815 e1ef b5ef f412 e0ee
00000060: f2f7 b81c 2d07 09e4 25ed 01d8 fb2f eaf5
00000070: ef17 fbbc c80f f0f4 e3b8 e3e3 f807 edd3
00000080: e50d f600 1602 3aab 2511 e51b 1417 0acf
00000090: d6d7 2b1d 2900 2d1b 1c00 07ec deed 15c6
000000a0: 03ff d21b 1004 2bdf 1e05 d800 ca0f fadd
000000b0: f0ba 1a13 3513 1d15 01e0 f609 dddb 04a5
000000c0: 2012 e507 04f7 45cd 1afe e305 d8fb f6cc
000000d0: 0ff4 0bee 2d17 f722 0708 cf03 efeb fdee
000000e0: 0bf0 b4f9 301f 2e04 2915 d9dc fffd fcf3
000000f0: 060f 01ca 1603 e917 e1d5 dbec eaf8 d6cf
0.13208354 -0.10427648 -0.51443064 -0.15989059 -0.20855296 0.05561412 0.23636001 -0.52833414
0.076469414 0.09037295 -0.19464943 -0.06951765 -0.076469414 0.16684237 -0.09037295 -0.22940825
-0.076469414 -0.34758827 0.09037295 -0.048662357 -0.38234708 0.062565885 0.06951765 0.22940825
0.11122824 -0.28502238 -0.32673296 -0.041710593 0.20160119 0.083421186 -0.11818001 -0.43100944
-0.062565885 -0.28502238 -0.6465142 0.09037295 -0.22245649 0.16684237 0.11122824 -0.12513177
-0.11818001 -0.020855296 -0.034758825 -0.034758825 -0.4379612 0.22940825 -0.19464943 -0.29197413
-0.1390353 -0.4171059 0.12513177 -0.24331178 0.034758825 0.11818001 0.05561412 -0.048662357
-0.1390353 -0.26416707 -0.4379612 -0.048662357 -0.11818001 0.19464943 -0.076469414 -0.45186475
0.06951765 -0.048662357 -0.3962506 -0.05561412 -0.02780706 -0.11122824 0.22940825 -0.31978118
0.10427648 -0.17379414 0.02780706 -0.062565885 -0.3406365 0.076469414 -0.51443064 -0.2989259
-0.06951765 -0.06951765 0.02780706 -0.2989259 -0.097324714 0.15989059 -0.2780706 0.14598706
-0.21550472 -0.11818001 -0.5213824 -0.11818001 -0.083421186 0.12513177 -0.22245649 -0.12513177
-0.097324714 -0.062565885 -0.5005271 0.19464943 0.31282943 0.048662357 0.062565885 -0.19464943
0.25721532 -0.13208354 0.006951765 -0.2780706 -0.034758825 0.32673296 -0.15293883 -0.076469414
-0.11818001 0.15989059 -0.034758825 -0.47272003 -0.38929886 0.10427648 -0.11122824 -0.083421186
-0.20160119 -0.5005271 -0.20160119 -0.20160119 -0.05561412 0.048662357 -0.13208354 -0.31282943
-0.18769766 0.09037295 -0.06951765 0.0 0.15293883 0.01390353 0.40320238 -0.59090006
0.25721532 0.11818001 -0.18769766 0.18769766 0.1390353 0.15989059 0.06951765 -0.3406365
-0.29197413 -0.28502238 0.2989259 0.20160119 0.28502238 0.0 0.31282943 0.18769766
0.19464943 0.0 0.048662357 -0.1390353 -0.23636001 -0.13208354 0.14598706 -0.40320238
0.020855296 -0.006951765 -0.31978118 0.18769766 0.11122824 0.02780706 0.2989259 -0.22940825
0.20855296 0.034758825 -0.2780706 0.0 -0.37539533 0.10427648 -0.041710593 -0.24331178
-0.11122824 -0.48662356 0.1807459 0.13208354 0.36844355 0.13208354 0.20160119 0.14598706
0.006951765 -0.22245649 -0.06951765 0.062565885 -0.24331178 -0.25721532 0.02780706 -0.6326106
0.22245649 0.12513177 -0.18769766 0.048662357 0.02780706 -0.062565885 0.4796718 -0.35454002
0.1807459 -0.01390353 -0.20160119 0.034758825 -0.2780706 -0.034758825 -0.06951765 -0.3614918
0.10427648 -0.083421186 0.076469414 -0.12513177 0.31282943 0.15989059 -0.062565885 0.23636001
0.048662357 0.05561412 -0.3406365 0.020855296 -0.11818001 -0.14598706 -0.020855296 -0.12513177
0.076469414 -0.11122824 -0.52833414 -0.048662357 0.33368474 0.21550472 0.31978118 0.02780706
0.28502238 0.14598706 -0.27111885 -0.25026354 -0.006951765 -0.020855296 -0.02780706 -0.09037295
0.041710593 0.10427648 0.006951765 -0.37539533 0.15293883 0.020855296 -0.15989059 0.15989059
-0.21550472 -0.2989259 -0.25721532 -0.1390353 -0.15293883 -0.05561412 -0.29197413 -0.3406365

conv2d_3/Conv2D_bias f4 [64]
00000000: c07f aebe b261 56be 3ad8 e6bd 9168 8cbe
00000010: 146b 3cbe 935c 1bbf b917 e33c 15dc acbe
00000020: 2301 98be 173d b4bd 4e75 b5be be7e 87be
00000030: f62a 49be 8e5e 8fbe 8e76 71be a8d0 c1be
00000040: 85a9 9fbe f870 38be 57a0 cebd fa7a 913c
00000050: 5cf6 4cbe f7b6 c4bd bdd8 2dbe f9de cabe
00000060: 78fd ebbd f32e 84be a024 8fbd 6cd9 163c
00000070: 03b9 3ebe a495 36bd 8c3a 8dbe 230a f9be
00000080: 9e47 a8be a9bf 4d3d 55ea eebe 8663 3ebe
00000090: cbd2 673c 749c a5be 9b83 5ebf 8a54 acbe
000000a0: 3d3c 92be 6007 26be 441a 88be 2e14 c5bd
000000b0: c702 58be 89cb 17be c1d6 50be 2287 01be
000000c0: 6806 893d 4e0d 8ebe 2678 66bd 944e 38bf
000000d0: 4d2e 813d f410 8bbe 5020 aebc c08b fb3c
000000e0: d106 06bf f4bd 89be 0341 e2bc 80bb 2ebc
000000f0: 88cf b13c e5e8 29be d81d 9ebe 174a 12bf
-0.3408184 -0.20935705 -0.11271711 -0.27423528 -0.18400222 -0.6068813 0.027721273 -0.3376166
-0.29688367 -0.088007145 -0.3544106 -0.26463884 -0.19645295 -0.28001827 -0.23580381 -0.37854505
-0.3118402 -0.18011844 -0.10089176 0.017758835 -0.20015854 -0.0960521 -0.1697721 -0.3962324
-0.11522955 -0.2581707 -0.069894075 0.009207111 -0.18625264 -0.044576302 -0.2758373 -0.48640546
-0.3286714 0.05023161 -0.46663156 -0.18592653 0.014149378 -0.32345927 -0.86919564 -0.33658248
-0.28561583 -0.16213751 -0.2658254 -0.096229896 -0.2109481 -0.14823736 -0.20394422 -0.12649205
0.06690675 -0.27744526 -0.056266926 -0.719949 0.06307659 -0.27161372 -0.021255642 0.030706286
-0.5235415 -0.26902735 -0.02761889 -0.010664821 0.021705404 -0.16592748 -0.30882144 -0.571443

conv2d_3/kernel i1 [64, 4, 4, 32] scale=0.008711487 zero_point=0
00000000: f7ac dee2 f605 f52a 01b6 e0d5 2b16 0524
00000010: e3e5 23f5 f915 dc05 01c0 2afe f801 0a1d
00000020: f4c1 c1f0 17e5 f219 fffc b8db 1804 010e
00000030: e1cb f507 28f6 e8f6 ebcd f4e5 e818 1008
00000040: f4bd dce0 0112 f3d7 02f6 f9c3 280c fe0d
00000050: ddea 0905 ebfa f5f5 16dc f6c9 e305 1203
00000060: ebc7 f2d2 e8fb e506 18f9 d9e6 1b15 1afa
00000070: b4e4 03f1 0e0f f0ef fac0 03b2 e906 0103
00000080: dfc7 bdf4 fef0 e612 05ed e1f3 1005 0606
00000090: dde6 19f1 0612 f5f6 d8d7 1d2e 0303 f70a
000000a0: e9d0 cbe9 0fea e60f 011d e7ea f10a 03f9
000000b0: fe10 e4ef 02e2 e1f8 ddf6 ebf1 0304 fa03
000000c0: e2d4 eae9 1404 ede2 1804 20e2 12dd f304
000000d0: 0df8 f3e9 ecf2 f9f7 fb01 dadf f80a 00f4
000000e0: f7da 06ee f4f0 fbe6 100f f7f6 f7f3 f90f
000000f0: 0ace fbdd e5f4 f5fe d30e eff7 f409 fff6
-0.07840338 -0.7317649 -0.29619056 -0.2613446 -0.08711487 0.043557435 -0.09582636 0.36588246
0.008711487 -0.64465004 -0.2787676 -0.37459394 0.37459394 0.19165272 0.043557435 0.31361353
-0.25263312 -0.23521015 0.30490205 -0.09582636 -0.06098041 0.18294123 -0.31361353 0.043557435
0.008711487 -0.5575352 0.36588246 -0.017422974 -0.0696919 0.008711487 0.08711487 0.25263312
-0.104537845 -0.5488237 -0.5488237 -0.1393838 0.2003642 -0.23521015 -0.12196082 0.21778718
-0.008711487 -0.03484595 -0.62722707 -0.32232502 0.20907569 0.03484595 0.008711487 0.12196082
-0.2700561 -0.4617088 -0.09582636 0.06098041 0.34845948 -0.08711487 -0.20907569 -0.08711487
-0.18294123 -0.44428584 -0.104537845 -0.23521015 -0.20907569 0.20907569 0.1393838 0.0696919
-0.104537845 -0.58366966 -0.31361353 -0.2787676 0.008711487 0.15680677 -0.11324933 -0.35717097
0.017422974 -0.08711487 -0.06098041 -0.5314007 0.34845948 0.104537845 -0.017422974 0.11324933
-0.30490205 -0.19165272 0.07840338 0.043557435 -0.18294123 -0.052268922 -0.09582636 -0.09582636
0.19165272 -0.31361353 -0.08711487 -0.4791318 -0.25263312 0.043557435 0.15680677 0.026134461
-0.18294123 -0.49655476 -0.12196082 -0.4007284 -0.20907569 -0.043557435 -0.23521015 0.052268922
0.20907569 -0.06098041 -0.339748 -0.22649866 0.23521015 0.18294123 0.22649866 -0.052268922
-0.662073 -0.24392164 0.026134461 -0.1306723 0.12196082 0.1306723 -0.1393838 -0.14809528
-0.052268922 -0.5575352 0.026134461 -0.679496 -0.2003642 0.052268922 0.008711487 0.026134461
-0.28747907 -0.49655476 -0.58366966 -0.104537845 -0.017422974 -0.1393838 -0.22649866 0.15680677
0.043557435 -0.16551825 -0.2700561 -0.11324933 0.1393838 0.043557435 0.052268922 0.052268922
-0.30490205 -0.22649866 0.21778718 -0.1306723 0.052268922 0.15680677 -0.09582636 -0.08711487
-0.34845948 -0.35717097 0.25263312 0.4007284 0.026134461 0.026134461 -0.07840338 0.08711487
-0.2003642 -0.41815138 -0.4617088 -0.2003642 0.1306723 -0.19165272 -0.22649866 0.1306723
0.008711487 0.25263312 -0.21778718 -0.19165272 -0.1306723 0.08711487 0.026134461 -0.06098041
-0.017422974 0.1393838 -0.24392164 -0.14809528 0.017422974 -0.2613446 -0.2700561 -0.0696919
-0.30490205 -0.08711487 -0.18294123 -0.1306723 0.026134461 0.03484595 -0.052268922 0.026134461
-0.2613446 -0.38330543 -0.19165272 -0.2003642 0.17422974 0.03484595 -0.16551825 -0.2613446
0.20907569 0.03484595 0.2787676 -0.2613446 0.15680677 -0.30490205 -0.11324933 0.03484595
0.11324933 -0.0696919 -0.11324933 -0.2003642 -0.17422974 -0.12196082 -0.06098041 -0.07840338
-0.043557435 0.008711487 -0.3310365 -0.28747907 -0.0696919 0.08711487 0.0 -0.104537845
-0.07840338 -0.3310365 0.052268922 -0.15680677 -0.104537845 -0.1393838 -0.043557435 -0.22649866
0.1393838 0.1306723 -0.07840338 -0.08711487 -0.07840338 -0.11324933 -0.06098041 0.1306723
0.08711487 -0.43557435 -0.043557435 -0.30490205 -0.23521015 -0.104537845 -0.09582636 -0.017422974
-0.39201692 0.12196082 -0.14809528 -0.07840338 -0.104537845 0.07840338 -0.008711487 -0.08711487

conv2d_4/Conv2D_bias f4 [64]
00000000: 3a9f 0fbe 7c8b 7dbe 1cde 32be 1486 49be
00000010: 42ed 1bbe 2f89 7ebe 0a22 cebe 7372 00be
00000020: ce8c 74be dec4 89be 5163 b7bd e190 07be
00000030: 605a a7be 628e e0bd 42be 8abe 9cf5 babe
00000040: d7ee 46be b543 32be 0168 bdbe f35b 72be
00000050: 7e43 2bbe 962e c0be 2a90 d4be 30f9 d4be
00000060: 3b84 d23d 9b7c 30be f89c 7a3b d77c 06be
00000070: 542f cebe 163d 02bd 0ba3 11be 7845 39be
00000080: 180e 02bf 381a 16be a902 a3bd ea29 35be
00000090: a47c 96bd bd8a 2cbe 324d b6be 2f83 53be
000000a0: 694b 2bbe 50ed 9cbe 0b8a ccbe 6736 5bbe
000000b0: ebeb 99be 2b61 56be 43a9 96be 97c1 acbe
000000c0: ef1b e6be 689e aebe f2c9 0abe 09eb 48be
000000d0: 3979 cdbe d791 da3d c97d 09be df47 e5bc
000000e0: 1fc5 09bf 5f86 a2be b1cb d1bd acc1 b5be
000000f0: 16ed 2bbe 4e7a cabe 760e 0abe 44df 9abe
-0.14025584 -0.2476024 -0.1746754 -0.19680053 -0.15227225 -0.24857019 -0.40260345 -0.12543659
-0.23881838 -0.2690801 -0.0895449 -0.1323886 -0.32686138 -0.10964657 -0.2709828 -0.3651551
-0.19427048 -0.1740864 -0.3699341 -0.23667888 -0.16724965 -0.37535542 -0.41516238 -0.41596365
0.10279127 -0.17235033 0.0038240533 -0.1313356 -0.40270483 -0.031796537 -0.14222352 -0.18092906
-0.50802755 -0.14658439 -0.07959492 -0.1769177 -0.07347992 -0.168498 -0.3560577 -0.20655511
-0.16727985 -0.30649805 -0.39949068 -0.21407472 -0.30062804 -0.20935504 -0.2942601 -0.33741447
-0.44943187 -0.3410523 -0.13553599 -0.19620909 -0.40131548 0.10672348 -0.1342689 -0.027988372
-0.5381641 -0.31743142 -0.10243929 -0.35499322 -0.1678966 -0.39546436 -0.13482079 -0.30248463

conv2d_4/kernel i1 [64, 4, 4, 64] scale=0.0068388325 zero_point=0
00000000: e4e3 20ef 050f fc0e fdfc 0c25 f3fa fd11
00000010: f5de fb05 0104 28eb e4e7 0517 2009 fc0e
00000020: f40a 22d8 2007 d2dd 4328 f20b e5cc f113
00000030: 09dd 1f0e 1201 24e5 dbd7 0802 d5ee 11d7
00000040: f9ed 09eb e1f4 e3f2 0ad5 0c1b bc08 ec1e
00000050: 0a1d 0221 f4fd 1afe eddc 2703 22f5 00f8
00000060: d00d 06fc 03fa cee9 3928 f404 10e3 e9fb
00000070: 04da 2301 c6e2 422b 1701 1504 fd14 09c3
00000080: f2eb 0ee9 d437 f917 12cd 0e1e c1f6 0f04
00000090: 191d abf9 0efa 0af1 dee4 02fd fde9 fb00
000000a0: b71b 2eeb f82c e6ec f63b de03 f30a eae6
000000b0: fcc5 1009 17fc 2826 0a11 1ffa f21f fbc4
000000c0: 0edc e7f4 f30d 0014 2ad7 e70d f6ec d9b7
000000d0: 164e acec f9e0 0ecd e8fe 15f1 edce e203
000000e0: 1310 16ef e533 f5f3 0e20 d70d 05ff ed00
000000f0: 26e8 e714 03e6 132a 25f9 14ff fc03 f9d0
-0.19148731 -0.19832614 0.21884264 -0.116260156 0.034194164 0.102582484 -0.02735533 0.095743656
-0.020516498 -0.02735533 0.08206599 0.2530368 -0.08890482 -0.041032996 -0.020516498 0.116260156
-0.07522716 -0.23252031 -0.034194164 0.034194164 0.0068388325 0.02735533 0.2735533 -0.14361548
-0.19148731 -0.17097081 0.034194164 0.15729314 0.21884264 0.061549492 -0.02735533 0.095743656
-0.08206599 0.06838833 0.23252031 -0.2735533 0.21884264 0.047871828 -0.31458628 -0.23935914
0.45820177 0.2735533 -0.095743656 0.07522716 -0.18464848 -0.35561928 -0.102582484 0.12993781
0.061549492 -0.23935914 0.21200381 0.095743656 0.123098984 0.0068388325 0.24619797 -0.18464848
-0.2530368 -0.28039214 0.05471066 0.013677665 -0.2940698 -0.123098984 0.116260156 -0.28039214
-0.047871828 -0.12993781 0.061549492 -0.14361548 -0.21200381 -0.08206599 -0.19832614 -0.095743656
0.06838833 -0.2940698 0.08206599 0.18464848 -0.46504062 0.05471066 -0.13677666 0.20516497
0.06838833 0.19832614 0.013677665 0.22568147 -0.08206599 -0.020516498 0.17780964 -0.013677665
-0.12993781 -0.24619797 0.26671445 0.020516498 0.23252031 -0.07522716 0.0 -0.05471066
-0.32826397 0.08890482 0.041032996 -0.02735533 0.020516498 -0.041032996 -0.34194162 -0.15729314
0.38981345 0.2735533 -0.08206599 0.02735533 0.10942132 -0.19832614 -0.15729314 -0.034194164
0.02735533 -0.25987563 0.23935914 0.0068388325 -0.39665228 -0.20516497 0.45136294 0.2940698
0.15729314 0.0068388325 0.14361548 0.02735533 -0.020516498 0.13677666 0.061549492 -0.4171688
-0.095743656 -0.14361548 0.095743656 -0.15729314 -0.30090863 0.3761358 -0.047871828 0.15729314
0.123098984 -0.34878045 0.095743656 0.20516497 -0.43084645 -0.06838833 0.102582484 0.02735533
0.17097081 0.19832614 -0.58130074 -0.047871828 0.095743656 -0.041032996 0.06838833 -0.102582484
-0.23252031 -0.19148731 0.013677665 -0.020516498 -0.020516498 -0.15729314 -0.034194164 0.0
-0.49923477 0.18464848 0.31458628 -0.14361548 -0.05471066 0.30090863 -0.17780964 -0.13677666
-0.06838833 0.4034911 -0.23252031 0.020516498 -0.08890482 0.06838833 -0.15045431 -0.17780964
-0.02735533 -0.4034911 0.10942132 0.061549492 0.15729314 -0.02735533 0.2735533 0.25987563
0.06838833 0.116260156 0.21200381 -0.041032996 -0.095743656 0.21200381 -0.034194164 -0.41032994
0.095743656 -0.24619797 -0.17097081 -0.08206599 -0.08890482 0.08890482 0.0 0.13677666
0.28723097 -0.28039214 -0.17097081 0.08890482 -0.06838833 -0.13677666 -0.26671445 -0.49923477
0.15045431 0.5334289 -0.57446194 -0.13677666 -0.047871828 -0.21884264 0.095743656 -0.34878045
-0.16413198 -0.013677665 0.14361548 -0.102582484 -0.12993781 -0.34194162 -0.20516497 0.020516498
0.12993781 0.10942132 0.15045431 -0.116260156 -0.18464848 0.34878045 -0.07522716 -0.08890482
0.095743656 0.21884264 -0.28039214 0.08890482 0.034194164 -0.0068388325 -0.12993781 0.0
0.25987563 -0.16413198 -0.17097081 0.13677666 0.020516498 -0.17780964 0.12993781 0.28723097
0.2530368 -0.047871828 0.13677666 -0.0068388325 -0.02735533 0.020516498 -0.047871828 -0.32826397
